Lab5_Project/models/conv_net_stl.pt (torch, 249801 bytes, 10 tensors)

conv1.weight f4 [6, 3, 5, 5]
000000 e1 72 95 bd 8b f2 48 bb f2 79 dc bd 2a 48 81 bd
       -0.07297302 -0.0030662145 -0.10765447 -0.06312592
000010 a6 8a 0b bd fc 77 34 bc 94 63 e5 3d eb b8 0b 3d
       -0.034067772 -0.011014935 0.11200634 0.0341119
000020 51 20 3b bc 99 1d ac 3d fb db bd 3d 54 c0 13 3d
       -0.011421279 0.08404083 0.092704736 0.03607209
000030 de 4a b5 bd 15 56 10 bd 89 27 bc 3c 0e ad 60 3c
       -0.088521704 -0.035238344 0.02296807 0.013713134
000040 9b 3c 20 bd 9e e4 65 bc ea 8a 5e 3c e9 ed c8 3b
       -0.039120298 -0.014031557 0.013582924 0.0061318767
000050 6c 32 e3 bd 33 a6 48 3d 81 2e 0d 3d b9 1f ad 3d
       -0.110936016 0.048986625 0.034468178 0.08453316
000060 a7 03 fc bc 4e 30 bc 3d 5f 9e 9c bd 10 89 41 3d
       -0.03076346 0.09188901 -0.076473944 0.047249854
000070 73 ff 01 be 2b be 83 3d 1a a3 ff 3c 37 ae c3 bd
       -0.12695102 0.06432756 0.031205703 -0.09554713
000080 46 3c 97 bd 7b cf 9d 3d bd 68 92 bd 3c cd b5 bd
       -0.07384543 0.077055894 -0.071488835 -0.08877036
000090 c4 ec a8 3d 40 d4 06 bd a6 4e 92 bc 8e d9 08 ba
       0.082482845 -0.03291726 -0.017859768 -0.00052204065
0000a0 c3 a3 e7 bc b4 31 b9 3d 60 9f 78 3d 9b 2b 89 3d
       -0.02827633 0.09042683 0.060698867 0.0669777
0000b0 37 ce 01 be 39 d6 4b bd 4c 29 d4 bd f3 f0 a2 bd
       -0.12676321 -0.049764846 -0.10359439 -0.07956114
0000c0 c9 fa 42 bd 18 7e ae bd 3e ce 84 3d c4 73 bc 3d
       -0.04760245 -0.08520144 0.0648465 0.09201768
0000d0 0c f8 94 3d 36 ba e5 3d fc da 13 3e 9b a3 bf 3d
       0.07273874 0.112171575 0.14439005 0.09357377
0000e0 ce f7 78 bd 0e d1 16 bd 63 cf 40 bd 19 22 b9 3a
       -0.0607832 -0.036820464 -0.04707278 0.0014124542
0000f0 1e a0 38 bd 82 8a 09 3b ea 3c a1 bc 55 80 d2 3d
       -0.045074575 0.0020987098 -0.019682366 0.10278384
000100 34 ee 50 3d 3b af 0f 3d af 7e 12 3d 91 f0 b2 3c
       0.05100842 0.035079222 0.035765346 0.021843227
000110 83 bc 07 3e 19 0b d6 3b db 50 73 3d 00 62 a7 3c
       0.13255505 0.0065320847 0.05940328 0.020432472
000120 fe 5c cb 3d fb 2b 33 bd d8 4e 8a bd 54 1b b4 3d
       0.09929846 -0.043743115 -0.067533195 0.08794275
000130 cd 34 89 3d f5 3e 8f 3d bc 3d df 3d 4a a1 0b 3e
       0.06699524 0.0699443 0.10900447 0.13635746
000140 e9 2c ec bb 3b a4 83 bd 30 69 26 bd 96 28 54 bd
       -0.007207502 -0.06427809 -0.04062766 -0.05179652
000150 f4 16 1c 3e 92 e4 b8 bd a2 cc 1d bd 92 e3 80 bc
       0.15243131 -0.09027971 -0.03852523 -0.015733514
000160 2f 3f f6 3c e9 aa 61 bd 21 48 bc bd c5 1e 88 3d
       0.030059425 -0.055094633 -0.09193445 0.06646494
000170 b8 75 25 3d 8e 8f d8 bc dd 41 6a 3d 32 35 c5 3d
       0.04039547 -0.02643564 0.05719172 0.09629287
000180 91 08 f4 bc c8 fa 44 3c 78 f6 ec 3d 10 c3 60 3d
       -0.029789241 0.0120226815 0.11570448 0.054873526
000190 bc a3 49 bd 5b a6 bd bd 56 67 9a 3c 6f 17 aa 3d
       -0.049228415 -0.092602454 0.018848103 0.08305251
0001a0 77 6c 38 3d 10 9e 9a bd 88 97 6e 3d 65 81 00 3d
       0.045025315 -0.07549679 0.05824998 0.0313734
0001b0 3d 47 2d bd d1 78 00 bd 5c 1a 03 bd df 4f ea bd
       -0.042304266 -0.03136522 -0.03200756 -0.114410155
0001c0 0f 97 ac bc ab e1 a1 3d 0e d1 3b bd a0 c3 56 bd
       -0.021068124 0.07904371 -0.045853667 -0.052432656
0001d0 38 59 88 bd 47 7c a2 3a 1e d9 45 bd 4f 5d 62 bd
       -0.06657642 0.0012396657 -0.048302762 -0.055264767
0001e0 88 83 01 be b7 82 15 be 7b c8 9c bc ea 98 6d bd
       -0.12647831 -0.14600645 -0.019138565 -0.05800716
0001f0 05 fc 03 bd 77 62 b8 bd 83 69 c4 3d bb d9 dd bd
       -0.032222766 -0.09003156 0.09590437 -0.108325444
000200 36 60 92 3c 27 91 ef 3d 17 d8 82 3d bd f1 f5 bc
       0.017868143 0.116976075 0.06388872 -0.030022496
000210 19 2d ae 3d 27 36 70 3d 0f 1e 84 bd ec c9 2f 3d
       0.085046954 0.058645394 -0.06451046 0.042917177
000220 14 01 a0 bd 26 96 02 be 50 91 fc bd ce 1a 9c bd
       -0.07812706 -0.1275259 -0.12332404 -0.076223
000230 90 73 3c bd 26 4f 87 3d a2 47 21 bd 28 77 74 3b
       -0.046008646 0.06606893 -0.039374955 0.0037302468
000240 cb 23 83 3d 42 f6 1e bd 25 ff 31 3d 8a 5f ea bc
       0.06403311 -0.03880907 0.043456215 -0.02861001
000250 e1 90 bd bd 61 26 04 bd 22 3b a7 bc d3 74 99 bd
       -0.09256149 -0.032263163 -0.020413939 -0.074929856
000260 ec 5e 3d bd fa 9a e0 bd ee fe f6 bd 9b 00 a3 3d
       -0.046233103 -0.109670594 -0.12060343 0.079591
000270 e7 15 23 3d e4 67 bf bd 4d 12 06 be 37 5c 02 be
       0.03981581 -0.093459874 -0.13092919 -0.1273049
000280 91 f6 96 3d c7 d3 05 be 30 61 27 3c 90 c4 e8 bd
       0.073712476 -0.13069068 0.010216042 -0.11365616
000290 dd 8f 09 3c 18 31 0d be 3f 78 49 bd 4c df 60 bc
       0.008396116 -0.13788259 -0.04918694 -0.013725113
0002a0 eb f9 5d 3d 81 c8 0c be 84 31 9d bd 99 c7 b9 bd
       0.05419342 -0.13748361 -0.0767546 -0.09071273
0002b0 f8 16 bd bc c2 c3 0c bd 61 e0 e6 3b d4 54 8a 3d
       -0.023082241 -0.034366377 0.007045791 0.06754461
0002c0 4f 3f d6 3c 02 78 f3 3d 91 a0 dc 3d 9b 4c d0 bb
       0.026153235 0.11888124 0.10772813 -0.0063567883
0002d0 7b 24 dd bd ba bd a9 bd 17 ee f1 3c 74 ce 95 bc
       -0.10797974 -0.082881406 0.029532475 -0.018286921
0002e0 f8 23 d6 bd 4c 44 83 bc 32 b3 17 bd ad 8f a1 3d
       -0.10456079 -0.016023777 -0.03703613 0.07888732
0002f0 51 74 a1 3c 43 33 77 3d bc 82 c7 3d 8c 00 94 3d
       0.019708784 0.06035162 0.097417325 0.07226667
000300 9a 52 d5 3d d0 6d 72 bd e7 53 c8 3d 8a 23 c4 bd
       0.104161456 -0.059186757 0.09781628 -0.09577091
000310 e3 3a b4 3d c8 13 4b 3d 72 6c 1e bd 4d 66 29 3d
       0.08800294 0.04957941 -0.03867764 0.041357327
000320 95 79 f8 bc ee ad 65 3d 86 a1 43 3d ba d0 01 3c
       -0.030331412 0.056074075 0.047761463 0.007923299
000330 22 10 12 3c 99 95 cb 3c 85 5a 84 3d fa 8b 30 3d
       0.008914979 0.024851607 0.06462578 0.043102242
000340 1e 40 53 3d 50 9f 38 3d 97 65 91 bd 4e cb ba bd
       0.05157482 0.045073807 -0.07099455 -0.091208085
000350 b7 e1 e4 3d 59 c7 c8 bc 56 a8 cc 3d 0b 53 8b bc
       0.11175864 -0.024509119 0.09993045 -0.017007371
000360 e0 79 16 3c 4a ab 37 3d 43 9d e9 3d 9b 62 e7 3b
       0.009184331 0.04484109 0.114069484 0.0070613152
000370 7f c5 0d 3d 41 18 ab 3b 0c e7 e1 bc 35 8c ab ba
       0.034612175 0.005221397 -0.027575992 -0.001308805
000380 10 cb 27 bd 3c 78 bb 3d a5 40 dd 3d 2b b1 6d bc
       -0.04096514 0.09153792 0.108033456 -0.014507572
000390 52 fa bf 3d f6 b4 1b bb 70 6f ed 3d 8d 2f 0a 3d
       0.09373917 -0.0023758984 0.11593521 0.033736754
0003a0 9a 71 a1 3c 6d 5b c2 3d bf bb d1 3d 82 df c0 3c
       0.01970749 0.09490094 0.10240888 0.023544077
0003b0 0c 80 ac 3d d8 24 f3 3d 8d 76 9f 3d 0b eb d0 bd
       0.084228605 0.11872262 0.07786284 -0.10201081
0003c0 07 d7 42 bd ae a1 bb bd 47 80 b1 bd 7c 9c 67 3d
       -0.047568347 -0.09161697 -0.08667045 0.05654572
0003d0 35 0c 9b bd aa 87 58 bd ad 6e 13 3d 92 54 9e bd
       -0.07570688 -0.052863754 0.03599422 -0.07730974
0003e0 c2 e1 90 3d 35 31 55 3c f0 f0 87 bd ce 91 f0 3c
       0.0707431 0.01301222 -0.06637752 0.0293664
0003f0 12 88 62 3d 0b 68 14 3d 7f 9c 08 be e3 ef d5 3b
       0.055305548 0.036232036 -0.13340949 0.006528841

conv1.bias f4 [6]
000000 d9 a0 89 3d ab 18 e6 3d 33 7a 01 bc 8b 0b 7e 3c
       0.067201324 0.11235174 -0.00790267 0.015505682
000010 08 7b dd bd 66 79 40 be
       -0.10814482 -0.1879631

conv2.weight f4 [16, 6, 5, 5]
000000 94 8a 12 3d d1 af bb bc a5 07 8c bd 14 80 fa bc
       0.03577669 -0.022910984 -0.068373956 -0.03057865
000010 81 87 68 3d 45 72 8a bc b6 c2 4f 3d 27 cc 0f 38
       0.05676985 -0.016900191 0.0507228 3.428399e-05
000020 3e 77 90 bd 63 b2 98 3d 8a 4f b0 3c e3 e9 30 3c
       -0.07053994 0.074558996 0.021522302 0.01079795
000030 13 ef 72 bd 83 8f 8e 3d fa 6e 6d bd 8f 6a 84 3c
       -0.05931003 0.069609664 -0.057967164 0.016164092
000040 20 aa 7e 3d cf 4f 32 3d 63 54 35 3d 93 19 44 3d
       0.062173963 0.043533143 0.04426993 0.047875952
000050 d6 30 cd 3c 28 64 19 bd 17 a8 88 bd bb 58 12 bd
       0.0250477 -0.037449032 -0.066726856 -0.03572915
000060 d9 c6 0f 3d 81 75 a3 bd ec ae 95 bb 90 c7 a9 bc
       0.035101745 -0.079813965 -0.0045679715 -0.020725042
000070 84 e3 dd bd e4 2d d5 bd 2f c7 0c bd fa 26 13 bd
       -0.10834411 -0.104091436 -0.034369644 -0.035925843
000080 ab e3 4b bd 5f 99 88 bd 2c 5c 56 bd 1d a2 5b 3d
       -0.049777668 -0.06669878 -0.052333996 0.0536214
000090 be 30 c0 bd d1 38 83 3c 3e bf e2 bd 4b 7a c5 bd
       -0.09384297 0.016018303 -0.11071633 -0.09642466
0000a0 d1 b0 9f 3c f0 53 c1 bd 79 b7 e1 bd 1f a4 b1 bd
       0.019493492 -0.09439838 -0.11021323 -0.08673882
0000b0 65 51 b8 3c 9a 69 55 3d bf 6f b0 3d a9 30 3a bd
       0.02249975 0.052102663 0.08615064 -0.045456562
0000c0 ef cf 72 bd 0f 45 8d 3d fa 1f a3 3d 76 34 be bc
       -0.059280332 0.068979375 0.079650834 -0.023218375
0000d0 4b bb 69 bc fd 32 b7 3d 91 51 21 3d 48 68 5a bd
       -0.0142658455 0.08945272 0.03938443 -0.053322107
0000e0 01 c8 75 bc 9b da d4 3b a7 ad 6c 3c 29 f4 13 3e
       -0.015001298 0.0064957864 0.014445699 0.14448608
0000f0 cf f7 cc 3c df 95 7b 3d e1 20 a8 3d 02 b4 9a 3d
       0.025020508 0.061422225 0.08209396 0.07553865
000100 d1 6e 4c 3d f4 eb 08 3d 54 70 91 3d 55 4f ff 3d
       0.04991037 0.033428147 0.07101503 0.12466303
000110 52 a4 a0 3d ab f5 bc 3d c6 d7 31 3d 9b 42 a9 bc
       0.078438416 0.09226545 0.04341867 -0.020661643
000120 ca 60 3b 3c 6b 1a fd 3a db ab 9b 3d 6d 5d 03 3c
       0.0114366505 0.0019310241 0.07601138 0.00801788
000130 2f d3 ad bd e2 86 8f bd 67 a6 89 bd 93 44 97 bd
       -0.08487546 -0.07008149 -0.06721192 -0.07386126
000140 b5 da c8 bc 9e ce 97 bd c7 36 e2 bd ce db f0 bd
       -0.02451835 -0.07412456 -0.11045604 -0.117606744
000150 68 14 21 bd 30 70 6f 3d 9e 84 ba 3c 3d a3 c6 3b
       -0.0393261 0.0584566 0.022768315 0.00606194
000160 a1 3b 63 bd 15 19 ee bc 6a 2f 79 3d 2c 2e 5a bd
       -0.05547679 -0.029064694 0.060836233 -0.05326669
000170 f7 28 e2 bd 4b 00 56 bd ca 8f 97 bd c5 9d b2 3c
       -0.1104297 -0.052246373 -0.074004725 0.021803746
000180 7a 86 ca 3c 1d 2f 9c 3d fa 22 32 3d 45 0f 91 bc
       0.024722327 0.07626174 0.043490387 -0.017707476
000190 4f 91 23 bc 00 28 02 3e 5a 2f 51 3d c8 83 71 3d
       -0.009983375 0.12710571 0.05107055 0.058963567
0001a0 88 84 87 3c b7 e0 94 3d f8 54 73 3d e9 39 22 3d
       0.016542688 0.072694235 0.059407204 0.03960601
0001b0 d2 02 a3 3d 5b 08 5f bc f4 7f 52 3d 65 05 08 3d
       0.07959522 -0.013612832 0.051391557 0.03320827
0001c0 fd 42 af bc 41 50 f3 3d f6 ae 0e 3e 7b aa 29 bc
       -0.021394247 0.118805416 0.1393393 -0.010355587
0001d0 ee d0 91 bd 58 ce d0 3c b3 80 69 3d 1c c2 16 3e
       -0.07119928 0.025489017 0.057007503 0.14722484
0001e0 d3 45 46 3d 5e a6 82 3d c8 6f 96 bd 66 5c ac 3c
       0.048406433 0.06379388 -0.07345539 0.021040153
0001f0 4d 89 fb bc 8a 70 5f bd c1 5c a0 3d 07 0c 88 3d
       -0.030705119 -0.054550685 0.078301914 0.06642919
000200 98 9c e2 3c b5 56 55 bd 76 2a 1f 3d f4 2f 2c 3b
       0.02766256 -0.052084643 0.038858853 0.00262737
000210 ca 56 54 3d cd 49 3d 3d 54 c6 97 bd 5a 04 8e 3d
       0.05184058 0.04621296 -0.07410875 0.06934424
000220 2d 97 9e 3c b7 09 4d bd c5 0a 85 3c a0 5a 2c 3c
       0.019359196 -0.050058093 0.016240487 0.010519654
000230 53 c9 33 3d 71 79 c6 3c 90 66 63 3d ad e6 9d 3a
       0.04389317 0.02422783 0.055517733 0.0012046896
000240 c3 b7 1b bd b7 a3 f5 bc 5b 67 76 bb d5 ec 52 3d
       -0.038017046 -0.029985292 -0.0037598226 0.051495392
000250 be e2 c9 3a dc ac 32 bd 45 51 17 3d 1e 99 4a 3d
       0.0015402657 -0.043621883 0.03694274 0.04946243
000260 14 fd 26 bd f8 47 67 3d 35 ad be 3c c7 bd 36 bd
       -0.040768698 0.05646512 0.02327595 -0.04461458
000270 79 71 1f 3d f8 78 ad 3d bc b4 9f 3d a6 8c 66 bc
       0.038926575 0.084703386 0.07798144 -0.014071619
000280 0a 23 2a bd d4 15 49 3d 19 1b 8e bd 2a 98 37 bd
       -0.041537322 0.049093083 -0.06938762 -0.04482285
000290 45 7b b7 3c 09 c4 15 bd 3e 8e 8c 3d f4 fc 70 3d
       0.022397647 -0.036563907 0.06863068 0.058834985
0002a0 19 6f c0 bb e5 75 80 3b 44 96 08 3c e4 f3 d2 bc
       -0.005872619 0.003920304 0.008336607 -0.025751062
0002b0 1e c3 8f bd fe 27 51 bd 56 2b 4d bd ee 17 3b bd
       -0.070196375 -0.05106353 -0.050090156 -0.045677118
0002c0 24 59 af bc 08 9e 95 3c 85 22 80 3d d6 68 75 3d
       -0.02140481 0.018263832 0.06256584 0.059914432
0002d0 63 b7 04 3d c1 9c 96 bd bd cd 46 bc b7 d6 0b bc
       0.032401454 -0.07354117 -0.012134013 -0.008535079
0002e0 60 11 de bc f8 0a e7 bb 7d 00 9d bd ec c4 9f bd
       -0.027107894 -0.007050868 -0.07666109 -0.07801232
0002f0 af 6b 42 bc 5b 84 1e 3d a2 67 4a 3d 98 8c 14 3d
       -0.011866494 0.038700443 0.04941524 0.036266893
000300 de f2 8f 3d fb cb ec bc c6 32 0f 3d dc cf a7 bd
       0.07028745 -0.02890586 0.03496053 -0.08193943
000310 f4 b6 27 bd 71 08 12 bc 20 f7 96 3d 5a 40 6e bd
       -0.040945962 -0.008913145 0.07371354 -0.05816684
000320 0f e9 dd 3d b9 88 db 3d 4a c4 10 3e 60 19 bd 3d
       0.10835468 0.10719437 0.14137378 0.092333555
000330 0c b7 d5 3d 3c cf bb 3d 08 3d f6 bc 14 2e 95 bc
       0.10435304 0.09170386 -0.030058399 -0.018210448
000340 33 a5 ca 3c 58 86 39 3d 63 b9 a3 bb 84 6f 8a ba
       0.024736976 0.045294136 -0.004996465 -0.0010561799
000350 e1 e8 49 3d 82 fa d1 3d af 2d 3f bd c7 91 1b 3b
       0.049294356 0.10252859 -0.046674427 0.0023738013
000360 00 db e5 3c 99 5b 83 3d b9 50 8d bd a8 4c be bc
       0.028058529 0.06413955 -0.06900162 -0.023229912
000370 a1 fd 32 bd 9e f3 94 bd d7 84 8d bd 3a cf 80 bc
       -0.04369891 -0.07273029 -0.06910103 -0.015723813
000380 3c da a8 3d 8f 1d 8b bd 3f 90 80 bd fd d1 8a bd
       0.0824475 -0.06792747 -0.06277513 -0.06778333
000390 ba 9e 6a bc 89 d7 d2 3d 91 2f 45 bc e8 35 a3 bd
       -0.01432007 0.10295016 -0.0120352665 -0.07969266
0003a0 2a 0d 17 bd 09 a2 91 3d 0c ef f8 3c ba d8 8a bd
       -0.03687779 0.07110984 0.030387424 -0.067796186
0003b0 c7 b4 d2 3d a7 b0 eb bb 5c a5 61 bd 90 15 17 bd
       0.10288387 -0.0071926895 -0.05508934 -0.036885798
0003c0 28 46 d1 bc 66 e7 fe 3c 17 6b 21 bd f6 36 af 3c
       -0.025546148 0.031116199 -0.03940877 0.021388512
0003d0 32 2c a6 3d c4 da 63 3d 96 a9 20 3d 3d c3 c3 3d
       0.08113898 0.055628553 0.03922423 0.09558723
0003e0 87 57 5a bd 40 65 a6 3c 69 17 be 3d 5a ea 2f 3e
       -0.05330613 0.020311952 0.09281809 0.17179242
0003f0 87 b6 12 3e e0 47 e0 3d 25 d1 67 3d 97 79 1d 3e
       0.14327441 0.10951209 0.05659594 0.15378414

conv2.bias f4 [16]
000000 c3 5b d1 bc 14 93 d3 bd 27 6c a5 bd 50 d9 b0 ba
       -0.02555645 -0.10330787 -0.08077269 -0.0013492499
000010 06 53 65 bd 02 37 d8 3d cf 88 44 3d e2 99 e0 bc
       -0.05598738 0.10557367 0.047982033 -0.027417127
000020 2c c7 91 3c 0b 22 8e bc 65 73 b6 3d 39 06 de bc
       0.017795168 -0.017350217 0.089087285 -0.027102577
000030 13 52 77 3d be 4f 73 bd d8 b9 00 bd 95 af 85 bd
       0.060381006 -0.05940222 -0.031427234 -0.0652763

conv3.weight f4 [120, 16, 5, 5]
000000 2a 52 7b 3d a5 3a 42 ba ae d3 14 3c a8 ae f2 bc
       0.061357655 -0.00074092514 0.0090836715 -0.029624298
000010 cb 96 56 3d b1 59 b8 ba ce 00 f8 bb 14 2a 89 bd
       0.0523899 -0.0014064816 -0.0075684553 -0.06697479
000020 ab 7f 31 bd 0c 73 23 3d 0e 84 8f bd d5 3c ce bc
       -0.043334644 0.03990464 -0.07007609 -0.025175491
000030 94 9f 3a bd 46 4a 20 bc 04 29 0f 3d 88 de 38 bc
       -0.04556234 -0.009783333 0.034951225 -0.011283524
000040 49 06 72 bd 8e 8d bd bd f9 9d 06 bd 17 4f 70 3d
       -0.059088025 -0.09255515 -0.0328655 0.058669176
000050 4e 16 2d 3d 66 5b f2 3c 68 2a 31 bd 9e b8 19 3c
       0.0422576 0.029584598 -0.043253332 0.009382395
000060 5e 07 fe 3c c3 43 e2 bc 95 9f 8b 3d 95 3b f8 3b
       0.031009372 -0.027620202 0.06817547 0.007575462
000070 61 60 04 bd 11 e8 ed 3b a0 8a 2b 3d 11 ed e4 3b
       -0.032318477 0.0072603305 0.04188025 0.0069862683
000080 a6 bd dd 3b 44 65 6b bd ca 49 97 bb fb ac a6 3c
       0.0067669926 -0.05746962 -0.0046169506 0.020346155
000090 ce 22 f2 bc cb 50 f8 3b 1b bb 33 bd 79 d6 73 bb
       -0.029557612 0.0075779906 -0.04387961 -0.0037206693
0000a0 b8 6d 6c bc 3c 63 8e bc a3 a8 22 bd ae ba ad bd
       -0.014430456 -0.017381303 -0.039711606 -0.08482872
0000b0 97 97 a3 bd 9d 07 4e bd 5b d4 33 bd eb 7e 98 bd
       -0.07987898 -0.05030023 -0.04390369 -0.07446083
0000c0 b8 23 d5 bc 58 fc cf 3b 8e 48 83 3c 9c ff d6 bc
       -0.026018009 0.0063472204 0.016025808 -0.02624493
0000d0 db 81 89 bb 37 f0 8c 3d 0d d9 96 3d 73 35 55 bd
       -0.004196388 0.06881755 0.07365618 -0.052052926
0000e0 5f 5d 13 bd a0 f5 46 bd 47 06 48 3d 82 40 a7 3d
       -0.035977717 -0.04857409 0.04883411 0.08166601
0000f0 83 db 5f bd 1d 03 d3 bd a5 03 bd bd 29 44 8d bc
       -0.054652702 -0.10303328 -0.09229211 -0.017244415
000100 59 fb 96 3d f1 0a 21 3d 79 71 96 bc 04 f4 91 3b
       0.073721595 0.039317075 -0.018364655 0.0044541378
000110 20 88 10 bb 8c ec d8 3c 73 21 db 3d 6a 67 3f 3c
       -0.0022053793 0.026479982 0.10699739 0.011682371
000120 f8 ce 8c 3d 0c 1d 2b 3d 89 41 96 3d 26 b6 b4 3b
       0.06875414 0.041775748 0.073367186 0.005514878
000130 cf e6 25 bc 2a 9c d2 bc ed 0e fb 3c 2a 37 a0 3c
       -0.01012583 -0.02570923 0.030646766 0.019557554
000140 26 a6 8b 3c 79 36 5a bd 9d 98 a5 bb 58 3a b9 3c
       0.017047 -0.053274605 -0.0050535933 0.022610828
000150 2d ba 90 bc d0 b9 05 3c 99 01 29 bd 19 09 8d bd
       -0.0176669 0.008161977 -0.04126129 -0.06886501
000160 12 ec 49 bd 7e e7 48 3d 84 da e3 3c c9 06 33 bc
       -0.0492974 0.049048893 0.027814157 -0.010926911
000170 8c 3b 41 bd e4 77 7d bd ca 7a 2e 3d fd 92 00 3c
       -0.04717593 -0.061881915 0.04259757 0.007847545
000180 22 99 87 bc 4f f5 85 bb 60 ad 00 bc 7c b5 81 3d
       -0.016552512 -0.004088081 -0.007853836 0.063334435
000190 72 c3 d4 bc 3d 3b 8d bd c0 a6 62 bd d3 f5 95 3c
       -0.025972102 -0.068960644 -0.055334806 0.018305695
0001a0 6c ed 99 3c 6d 45 f0 bc 43 f5 3d bd 09 1f c6 bc
       0.01878997 -0.02932998 -0.046376478 -0.02418472
0001b0 ce b9 1f bc dd 18 13 bc a6 71 73 bc 7f 68 76 39
       -0.009748889 -0.008978096 -0.014858639 0.00023499316
0001c0 ef d5 c8 bd af 6f cc bd 13 9b d3 bc 38 f3 a4 3d
       -0.098064296 -0.099822395 -0.025830781 0.08054203
0001d0 60 f8 0f bd f4 25 4c bd 43 1c 8c bb d8 41 77 bc
       -0.03514898 -0.049840882 -0.00427583 -0.015091382
0001e0 c9 77 cc 3d 68 e5 1a 3d cc 9d 97 3d 6b b2 66 3c
       0.09983785 0.037816435 0.07403144 0.014080624
0001f0 a8 b9 d2 3d da 73 4a 3c 39 14 66 3c 2a 61 57 bd
       0.10289317 0.012356723 0.014042907 -0.052582897
000200 57 9c 7c bd ca 13 76 bd ec cb a2 3d b9 ce 9b 3b
       -0.061672535 -0.060077466 0.07949051 0.004754868
000210 e8 4a 87 bd 68 b4 11 be c0 75 d6 bc 36 d1 d0 3d
       -0.06606084 -0.14228976 -0.026179194 0.10196154
000220 63 9f 92 3d 43 91 a8 bd c9 d7 ce bd 2a 56 8a bd
       0.07159307 -0.082308315 -0.100997515 -0.06754716
000230 2a 32 bb 3d bd 9c 4c 3d c7 11 be bc d2 a0 dc bc
       0.091404274 0.049954165 -0.023201836 -0.026932154
000240 e4 5b ab 3b da 43 3c 3c c6 bb 8d 3d c8 f5 00 bb
       0.00522946 0.011490786 0.069205806 -0.0019677747
000250 1e b0 94 bb 51 18 e1 3c c3 08 43 bd c1 76 84 3d
       -0.0045375964 0.027477415 -0.047615778 0.06467963
000260 54 10 56 3c a1 19 f9 bb 12 c3 44 3d ee 41 e0 bb
       0.013065416 -0.007601932 0.048037596 -0.006843797
000270 2d f4 5b bc cd cb 98 bc 60 7d 6f 3b b3 af 78 3c
       -0.013424915 -0.018651867 0.0036543235 0.015178609
000280 a6 bd 02 3d f5 f2 42 bc 60 04 cc bc 22 38 7f bd
       0.031919144 -0.011898746 -0.02490443 -0.06230939
000290 19 7d 19 3c c1 9d 92 bb 20 2b 53 3b 4f fe 9f bd
       0.0093682045 -0.004474372 0.003222175 -0.078121774
0002a0 c0 eb 85 bc 1c 72 5b bd c0 f1 67 3c 81 54 68 bd
       -0.016347766 -0.05357562 0.014156759 -0.056721214
0002b0 14 71 76 bc b3 0f 19 3d 1f 91 04 bb f4 06 9a 3d
       -0.015041608 0.037368488 -0.00202281 0.075208575
0002c0 39 6c 4b 3d 61 86 16 3d 0a be 71 39 94 1a 2f 3c
       0.049663756 0.036749247 0.00023054346 0.010687489
0002d0 0a e3 20 3d 2e 3a 84 3c a5 ab 73 bc 3a ac d3 bc
       0.03927902 0.016141023 -0.014872466 -0.02583896
0002e0 18 30 c1 bc b4 8c 73 3d 9d 54 01 3d 38 bb b0 bc
       -0.023582503 0.059460357 0.031574834 -0.021573648
0002f0 32 ee 6a bc a0 0e c8 bb b3 07 a6 3c d1 1d 26 bd
       -0.014339017 -0.006105259 0.020267343 -0.04055578
000300 0e 4d c2 bd 59 8a 6f bd 0b 0b 69 bd 90 89 84 ba
       -0.09487353 -0.058481548 -0.056895297 -0.0010111798
000310 48 ec 3f bc 4a b5 29 bd 58 67 a6 bc bc 95 e3 3c
       -0.011714049 -0.041432656 -0.02031295 0.02778136
000320 40 b0 78 bc 8f f8 3d bd 88 e5 06 bd c6 31 d9 bb
       -0.01517874 -0.046379622 -0.03293374 -0.006628248
000330 fb b2 93 bc 2f 49 71 bd 71 6a 41 3d e6 63 80 3d
       -0.01802968 -0.058907684 0.04722065 0.06269054
000340 b5 87 aa 3c 09 2f 08 3d dc ef b2 bc 7a bd c9 39
       0.020816663 0.03324798 -0.02184289 0.0003847888
000350 4f 84 c9 3d a5 56 56 3d 2d c4 cd 3b bf 67 97 bb
       0.09839689 0.052328724 0.0062794895 -0.004620522
000360 ec 5f 1f 3c 50 07 78 3d 7a aa 30 bc da 4a da 3c
       0.009727459 0.06055385 -0.010782832 0.02664702
000370 4a d6 59 bd 11 d0 05 3d c7 a8 d9 3c c6 c8 63 bd
       -0.053182878 0.03266913 0.026569737 -0.055611394
000380 d5 33 fd bc d0 37 2a 3d ba 1e 68 3d a6 c2 16 bc
       -0.030908505 0.041557133 0.056669928 -0.009201681
000390 19 f1 f2 bc 04 f3 ca bc c8 ad 0b bd 08 f8 a0 3c
       -0.02965598 -0.024774082 -0.034101278 0.01964952
0003a0 65 45 66 3d 51 ca ef 3c f5 8b 7b 3c 02 08 24 bc
       0.056218524 0.029271277 0.015353193 -0.010011675
0003b0 03 22 a4 3c 67 12 37 3d ee f7 be 3d 2b 9c 05 3d
       0.02003575 0.044695284 0.093246326 0.032619637
0003c0 a5 cd ed bc 35 1f 71 3d 86 04 60 3d b3 15 39 bc
       -0.029028723 0.058867652 0.054691814 -0.011296677
0003d0 07 01 68 bc 61 c0 99 bd 7c 39 15 bc 4b 05 c1 3b
       -0.014160401 -0.075073965 -0.009107944 0.0058905235
0003e0 2a 97 b2 bc b9 79 85 bd 28 57 64 bc 71 b5 25 3b
       -0.021800596 -0.065173574 -0.013936795 0.002528515
0003f0 79 09 85 bc 20 1f 4a bd 82 c6 06 3d 5b d3 24 bd
       -0.016239868 -0.04934609 0.032904156 -0.040240627

conv3.bias f4 [120]
000000 72 ce 12 3c 23 84 1d 3d be 23 21 bc 04 37 cc 3b
       0.008960353 0.038456094 -0.009835182 0.0062321443
000010 9a 01 7c bc 8c b1 cd 3d 37 cd 44 bd 34 1a aa 3c
       -0.015381241 0.1004363 -0.04804727 0.020764448
000020 05 eb 84 3d 59 10 8c ba a4 a6 16 bd a5 3c 40 3d
       0.06490139 -0.0010686024 -0.036780015 0.046932835
000030 57 a7 1b 3d 22 8f 7a bd b5 1b 07 bd af 3d 05 3d
       0.038001385 -0.06117166 -0.032985408 0.03252953
000040 cb f2 0e bc 75 45 5e bd d4 35 03 3c 05 6f c9 3d
       -0.008724879 -0.054265458 0.008008439 0.098356284
000050 aa a0 bf 3c 60 96 d5 3d 73 fb 3f 3d d1 1c d9 3d
       0.02339204 0.104290724 0.04687066 0.106011994
000060 4f 65 5e bc ac 17 d5 bc 33 4b 2e 3b 9f 5c 25 3c
       -0.013573959 -0.026012264 0.0026595115 0.010092883
000070 e6 84 77 3c bc 5c 77 3d c8 5a 49 3d 55 9b 3b bc
       0.015107369 0.060391173 0.04915884 -0.011450608
000080 d5 cb d4 bb 3c e2 71 bc a9 c4 6c 3c 1a 99 89 3c
       -0.0064940252 -0.014763411 0.014451184 0.016796637
000090 e3 88 08 3b 38 81 2e 3d fd 4c 8a bd c2 e6 50 bd
       0.0020833544 0.0426037 -0.067529656 -0.051001318
0000a0 a0 4a 17 3c c6 e5 38 bd dc b0 57 bc 29 de 1b 3d
       0.009234101 -0.045141004 -0.013164725 0.038053665
0000b0 cf 52 8e bb 1f 00 17 3d fc 2a 31 bd 45 0b 83 3d
       -0.0043433676 0.03686535 -0.043253884 0.06398634
0000c0 0c c9 30 3d 55 b8 32 3d fd 5c a3 bc e9 9f 79 bc
       0.043160483 0.043632824 -0.019941801 -0.015235879
0000d0 a2 16 90 3c 09 c6 45 bd 22 22 a4 bd 43 a6 6e bc
       0.017588917 -0.048284564 -0.08014323 -0.014566007
0000e0 4e 09 97 3c b6 53 b7 3d eb a3 9a 3d 4d a6 d6 3c
       0.018437054 0.089515135 0.07550796 0.026202345
0000f0 c7 aa 16 3d 37 0f 72 3d e8 21 d1 3c c5 a3 16 bd
       0.03678396 0.05909654 0.025528863 -0.036777277
000100 fd 48 42 bd 82 b2 7f bc b8 34 5c bd 4c bb d5 bc
       -0.04743289 -0.015606524 -0.053761214 -0.026090287
000110 87 e5 ba bb 32 26 98 bd a5 b6 da bc 21 92 5a bd
       -0.0057036313 -0.0742916 -0.02669842 -0.053362016
000120 98 59 79 3c 11 68 01 3e d4 45 ba bc 45 19 d4 bd
       0.015219115 0.12637354 -0.022738375 -0.10356382
000130 70 c1 f5 3d 25 32 50 3a 51 cb a6 bc ae bc 5b bd
       0.11999786 0.00079420424 -0.02036062 -0.053646736
000140 87 b3 0b bd 28 d5 a3 bd 65 fa a6 3d 38 d2 1d 3d
       -0.034106757 -0.07999641 0.08153228 0.03853056
000150 c2 fb 99 3c fa 9f 82 3d 83 02 8a bc d3 8c c9 bc
       0.018796805 0.06378169 -0.0168469 -0.024603283
000160 ce 2f 28 3a d5 c0 a1 3a 0f 96 af 3d 24 28 c0 bb
       0.0006415815 0.0012340794 0.08573543 -0.00586416
000170 69 ae 0d 3e 57 8c 0e bd 16 ef c4 bc 2e 00 f3 3b
       0.13836063 -0.034801807 -0.024039786 0.007415793
000180 5a 35 4a bd 61 02 5a bc 2b 60 74 3d f2 4a 5d bc
       -0.049367286 -0.013306231 0.059662025 -0.013506638
000190 e7 18 bc 3d bd 22 2c bd f3 87 d3 bb a2 c1 7f bd
       0.09184437 -0.042025317 -0.0064554154 -0.062440522
0001a0 75 88 aa bc a4 bc 3d 3d 28 d2 f6 bc 48 01 5b bc
       -0.02081702 0.04632248 -0.030129507 -0.013367005
0001b0 9e a4 eb bc 8b 0e 0d 3d 6f f3 11 3d 3e 91 28 bd
       -0.028765019 0.034437697 0.035632547 -0.04115414
0001c0 4d 3b 2d 3d 07 bc f1 bc ca 1d 05 3d cc 07 f6 bc
       0.04229288 -0.029508604 0.032499112 -0.030033015
0001d0 dc bd 8c 3d 7e 97 87 bd 51 56 e5 3c 91 8d 89 3b
       0.0687215 -0.06620692 0.02799526 0.0041977842

lin1.weight f4 [84, 120]
000000 b5 52 1d bb 1e 3e 4b 3b 46 b3 28 bd 40 07 95 3d
       -0.0024005596 0.0031012367 -0.041186593 0.072767735
000010 f1 54 ae 3d 09 5e b6 3d 99 84 5e 3d fd 9e 34 bd
       0.08512295 0.089046545 0.054325674 -0.044096936
000020 b3 fb 26 3d 44 98 c5 3d 59 6b b5 3d e1 96 8b 3c
       0.040767383 0.09648183 0.088583656 0.017039718
000030 77 fc 85 39 98 31 2a 3d 9d 7a 9a bd 0d c8 74 3d
       0.00025555838 0.041551203 -0.07542918 0.059761096
000040 10 82 92 3c 95 49 ce bc 36 57 b8 3d 6d 46 02 be
       0.017884284 -0.025181571 0.09001009 -0.12722178
000050 77 95 ab 3c e6 05 c4 bd 4e 10 9b bd 22 80 08 be
       0.020945294 -0.095714375 -0.07571469 -0.13330129
000060 a8 9b 3a bd 64 a1 01 bd f6 11 3f bd a4 58 0a be
       -0.0455586 -0.031648055 -0.04664799 -0.13510376
000070 f5 23 5c bd c7 76 dc bd 93 c7 77 3d 04 05 c9 3c
       -0.05374523 -0.107648425 0.060493063 0.024538524
000080 3b 46 e5 3c c1 19 36 bd 5c ed d7 bd f4 be fc 3d
       0.02798759 -0.044458155 -0.105433196 0.12341109
000090 97 cf 75 b8 4a f2 ab bd eb 1b 9e 3d 3e 6d ed bd
       -5.8605885e-05 -0.08395822 0.07720169 -0.11593102
0000a0 79 01 cf 3d 9c 5a d3 bc fe d0 ab 3d f8 78 8e bb
       0.10107703 -0.025800042 0.083894715 -0.0043479167
0000b0 46 5b 70 bc a9 9d 61 bd 75 f1 db 3c ae a0 67 bd
       -0.014670199 -0.055081997 0.026848534 -0.05654972
0000c0 c9 f9 a2 bc f8 ef 91 bd e9 1a b0 3d 13 11 93 ba
       -0.019894497 -0.071258485 0.08598883 -0.0011220298
0000d0 38 d6 85 3c 57 55 83 3d 21 de 71 3d fa a2 18 bd
       0.016337499 0.06412762 0.05904973 -0.0372648
0000e0 ec 97 cd bd a8 77 12 bd 55 7f 76 bd e7 05 2a 3d
       -0.100387424 -0.035758644 -0.060180027 0.041509535
0000f0 6d 22 34 3c 80 8c ec 3d a9 c8 c1 bd 73 1c d8 3d
       0.010994536 0.11550236 -0.09462101 0.10552301
000100 0f 6b 9e 3d 8e 3c cd 3d a7 93 e3 3d 97 30 0a be
       0.077352636 0.100213155 0.11112147 -0.13495098
000110 de d5 b3 bc 00 89 fa bc c5 9c 87 3d f5 79 05 3b
       -0.021952566 -0.030582905 0.06621698 0.0020366882
000120 b4 f5 f2 bc f3 36 7f 3d b9 e7 0e 3d 26 3d 94 3c
       -0.029658176 0.062308263 0.034888957 0.018095564
000130 b0 88 a2 3d 03 b0 05 be 3b c3 94 bd 37 9b d9 3d
       0.07936227 -0.13055424 -0.072638 0.10625308
000140 49 01 32 bd 13 78 6b bd ef 12 9f bc 56 0a b7 3a
       -0.043458257 -0.05748756 -0.019418208 0.0013964872
000150 38 19 c4 3d 44 36 f2 3c a6 30 9c 3c c4 02 cf 3d
       0.095751226 0.029566891 0.019066166 0.101079494
000160 cd ad 01 3e 9c 58 1a bd 8f 07 e7 bd 06 eb f2 bd
       0.12663956 -0.03768216 -0.112807386 -0.118612334
000170 33 3c 65 bd a3 6d 00 3e a8 a0 81 bd 74 91 ec bc
       -0.055965614 0.12541823 -0.06329471 -0.028877951
000180 7d 15 79 3d f7 24 34 bd 03 a2 b5 bd 11 7b ae 3c
       0.06081151 -0.043980565 -0.08868792 0.021298917
000190 b9 69 97 bd 8a f1 38 3c cd f1 a2 3d 25 c7 04 3d
       -0.07393212 0.011288056 0.07956276 0.03241648
0001a0 7b 6d 95 bd 04 0d 2c 3c ed 92 c2 3d e7 79 04 3d
       -0.07296272 0.01050115 0.0950068 0.032342818
0001b0 41 8f 15 bd df f0 65 bd 7b 94 b1 bc 39 da 39 3d
       -0.03651357 -0.056137916 -0.021677246 0.04537413
0001c0 93 70 3a bd 8f 5a 71 3d d2 51 8f 3c 08 cb 78 bd
       -0.045517515 0.058924254 0.01749507 -0.0607405
0001d0 ae 9d 9b 3d 23 3e f1 bb a4 df f9 bc a9 a6 fa bc
       0.075984344 -0.0073621436 -0.030502148 -0.030597048
0001e0 24 cd c6 3d 19 35 8f bd 02 2d 06 3d e4 5c 55 bd
       0.09707096 -0.069925494 0.032757767 -0.05209054
0001f0 72 ab 68 3c bf 84 68 bd ca 90 53 3d fb 57 13 bc
       0.014201032 -0.05676722 0.051651753 -0.008993144
000200 8c 57 04 3d 1b 09 ac bd ee da 80 3d 49 d9 67 3d
       0.032310054 -0.08400174 0.062917575 0.056603704
000210 d7 04 2a bd c3 94 af bd fc ef 0c b9 90 10 71 bd
       -0.041508522 -0.08573296 -0.00013440842 -0.058853686
000220 b8 1a 0a bd ff bc fa 3b fd ae 78 3d fb a0 39 bb
       -0.033716887 0.0076519246 0.060713757 -0.0028324712
000230 5c eb 8f bd c3 0b f7 3d 07 64 62 3d 80 30 c7 3d
       -0.07027313 0.1206279 0.055271175 0.097260475
000240 3d f1 f7 bd f6 d6 f6 3d ad 0e 98 3d 58 2c 6d bd
       -0.121065594 0.12052719 0.07424674 -0.057903618
000250 09 46 e0 bc 51 b8 87 3d bb d6 c3 bc f7 4c 8d bd
       -0.027377145 0.066269524 -0.023906102 -0.068994455
000260 9c e4 ba bd 9c 57 c0 bc 0f 64 ad bc dc 09 83 bd
       -0.09125635 -0.023479275 -0.021165876 -0.06398365
000270 7c a5 6e 3d 62 40 85 bd 20 d7 00 bd 8a 10 0b 3e
       0.058263287 -0.06506421 -0.03145516 0.13580528
000280 0e ee 03 3d d1 95 8c 3d 1e a6 0e bd 98 fe 2d bc
       0.03220945 0.06864513 -0.03482639 -0.010619782
000290 3e f6 68 bd ca a6 f0 3d 15 73 9a bb 77 2d 37 3d
       -0.05687546 0.117505625 -0.004713426 0.044721093
0002a0 10 de 9f bd 37 be 49 3d 08 e3 e4 3c f0 c3 98 3d
       -0.07806027 0.04925367 0.027940288 0.07459247
0002b0 60 8d fe 3d de 1b b0 bd be ed 7b bd 5d eb c0 bd
       0.12429309 -0.08599065 -0.061506025 -0.09419892
0002c0 f0 48 d6 3d 1a 9f 64 3d bf 5a 9a 3d 3b c2 81 3d
       0.104631305 0.055815794 0.0753684 0.06335875
0002d0 b2 c2 2f 3d 3d ba 9a bd 90 15 03 bd 9c 71 24 bc
       0.042910285 -0.075550534 -0.032002985 -0.010036852
0002e0 69 af 69 bb b0 a2 12 3d f8 d6 cf 3c dc 57 75 bd
       -0.003565753 0.035799682 0.02537106 -0.059898242
0002f0 7b dd 11 3c 52 6d b7 3d ec 74 e8 bc 49 bd d1 bd
       0.008902903 0.08956398 -0.028376065 -0.102411814
000300 7d 88 7e bd ed c9 9d bc 36 0e 82 bc 44 da ff bd
       -0.062141884 -0.019261325 -0.015875917 -0.12492803
000310 54 f2 a0 bd 96 45 4a bd 18 a7 ad bc 6e b5 17 3c
       -0.078587204 -0.04938277 -0.02119784 0.009259565
000320 bc c6 c6 3d b8 17 44 3d cd 1e 41 3d 3f d0 81 3d
       0.09705874 0.047874182 0.047148515 0.06338548
000330 87 13 99 3d 6a 02 c8 3d 74 4a 90 bc c3 12 86 3c
       0.07474428 0.097660854 -0.017613627 0.016366368
000340 4d 64 a9 3d d2 4d 22 3d 42 bb 6e 3d 24 41 74 3c
       0.08271084 0.039624996 0.05828405 0.014908109
000350 cb f0 33 3d 64 96 05 bd ad 26 c3 3d 1b fb f2 bd
       0.04393081 -0.032614127 0.09528861 -0.11864301
000360 f5 79 5f bc c6 67 6b 3d 19 58 9c 3b 37 53 f5 bd
       -0.013639917 0.057472013 0.0047712442 -0.119787626
000370 55 0e ac 3d b0 17 de bd 5e cb f7 bd cf e9 cb bc
       0.08401171 -0.10844362 -0.12099336 -0.024891762
000380 ea 76 b7 3d 96 82 e6 bb d0 22 aa bd 3b 2e a1 bd
       0.08958228 -0.00703461 -0.08307421 -0.07870146
000390 19 9e c9 bd f8 60 23 bd e3 41 23 3d 82 9d ac bc
       -0.09844608 -0.0398874 0.039857756 -0.0210712
0003a0 e8 43 9f bd b7 bc 3a 3c bd 82 b9 bc eb 3e 1d 3d
       -0.07776624 0.011397532 -0.022645349 0.03839008
0003b0 49 48 20 3d 89 c6 64 bd 6d 5e ad bd 8b 1f 70 bd
       0.039131436 -0.0558534 -0.08465276 -0.05862383
0003c0 2b 35 5a 3d 4c be fe bc 64 04 93 bd 99 b3 0b be
       0.05327336 -0.0310966 -0.07178572 -0.1364273
0003d0 6d 5f c4 bc 57 68 a0 3d 0d 46 be 3c 5f 6a b0 3d
       -0.023971284 0.07832401 0.023226762 0.08614039
0003e0 e3 c7 02 bc a1 43 a4 3c 9c 69 ae bd 89 3b c3 bd
       -0.007982227 0.02005178 -0.08516237 -0.0953284
0003f0 9c 52 84 bc c3 bc 8c 3d ec 64 be 3d 2f 51 08 be
       -0.016152672 0.06871941 0.09296593 -0.13312219

lin1.bias f4 [84]
000000 b8 3c e6 bd 05 60 6d 3d 37 8f b1 bd 41 b4 e0 3c
       -0.1124205 0.0579529 -0.08669894 0.027429702
000010 42 4c 90 3d 0e e9 a9 3d 38 b8 16 bd 5f 7b e5 bd
       0.07045795 0.08296405 -0.03679678 -0.11205172
000020 7a 37 cd 3d 70 50 7f 3d 01 37 03 3d 2c d5 b5 bd
       0.10020347 0.06233257 0.032034878 -0.0887855
000030 ff a4 e5 3d 24 3d f4 bd 92 5e 06 3d 3f 4e 7c bb
       0.11213111 -0.11925724 0.032805033 -0.0038498787
000040 91 92 73 3d 76 68 e0 3c 06 03 81 3d 87 c6 80 bc
       0.05946595 0.02739356 0.06299405 -0.015719665
000050 f2 b5 c7 bd 05 1c fa 3b 77 46 65 bc 9d f6 8f 3d
       -0.097515 0.0076327347 -0.013993851 0.070294596
000060 c8 a7 05 bd 80 57 75 bc f7 a8 2f 3c 62 54 6f 3d
       -0.03263071 -0.014974475 0.010721437 0.058430083
000070 da 0e be 3d 93 d3 8f bd 01 ad c3 bd 26 bd e0 bd
       0.092801765 -0.070227765 -0.09554482 -0.10973577
000080 3d 7c fc 3b 56 41 8b 3d f4 d5 b4 bc 0d 42 08 3e
       0.00770524 0.06799571 -0.022074677 0.13306446
000090 c2 62 e0 bd 96 3f ad bc 37 9e a2 3d 02 23 9e bd
       -0.109563366 -0.021148484 0.07940333 -0.07721521
0000a0 fa 9a e6 bd 45 62 bd 3c 25 46 9f 3d 95 66 5e bd
       -0.11260028 0.023118148 0.07777051 -0.05429705
0000b0 92 8e cc 3d 04 b6 61 3c 0c 38 00 be 64 63 3c 3d
       0.09988131 0.013776306 -0.1252138 0.045993224
0000c0 6b a4 1d 3a 61 5d e8 3b 4a e7 83 bc c2 f8 04 be
       0.0006013575 0.0070912098 -0.016101498 -0.12985519
0000d0 08 89 a9 bd df cc b0 3d 0f 2c f3 3d 94 c9 c1 3c
       -0.0827809 0.08632826 0.11873638 0.02365569
0000e0 06 87 d2 3a 5c 98 ba bd 87 fe b7 bd 11 5e a7 3d
       0.0016061969 -0.091110915 -0.08984094 0.081722386
0000f0 28 ce ea 3c b8 24 34 bd 88 0f 36 bd 06 28 0f 3e
       0.028662756 -0.04398033 -0.044448406 0.13980111
000100 67 b3 2f 3d e9 66 1f bd 39 5f a7 3d c7 aa 8a 3c
       0.0428957 -0.038916502 0.08172459 0.016927136
000110 25 91 d6 3c ce 89 1a 3d 88 fa d4 bd 30 35 0f bd
       0.026192257 0.037729077 -0.103993475 -0.034962833
000120 fa 96 ef 3d 6e 36 9b bd 47 6d 59 bd bd 4f dd 3d
       0.11698718 -0.07578741 -0.05308273 0.108062245
000130 bd 1b f7 bd c4 7a bd 3d 39 ac bc 3b c6 d1 e1 bd
       -0.120658375 0.09251931 0.005757835 -0.11026339
000140 4e 0a 04 be 67 88 a5 3c 27 99 d9 3d d3 cc cd 3c
       -0.12894556 0.020206643 0.106249146 0.025122082

lin2.weight f4 [5, 84]
000000 4d 38 55 3d 1c de be 3c 87 b1 84 bc ac 2c 68 3d
       0.052055646 0.02329927 -0.016197933 0.056683227
000010 1d b2 d0 3c 6a 53 5b bd 43 79 b0 3c af 2e 78 3d
       0.025475556 -0.053546347 0.021542197 0.060591396
000020 ec 5d 42 bd ab 34 07 bb 13 fa c3 3c 38 8f 14 bd
       -0.047452852 -0.0020630758 0.023922956 -0.036269397
000030 12 73 61 3d fd 35 bf bd 92 32 c4 3d 0c 23 08 be
       0.05504138 -0.09336469 0.09579958 -0.1329462
000040 15 b6 bf 3d d3 27 dc bb a4 19 10 bc c8 d1 43 3b
       0.09360901 -0.0067186146 -0.008795176 0.0029879678
000050 70 bb d2 3d 89 cc 85 bb 93 a0 89 3c 30 17 04 3d
       0.10289657 -0.0040832204 0.0168002 0.032248676
000060 96 96 9c 3d ec 56 e5 bc 0a 27 9e 3d 96 cd 8c bd
       0.076459095 -0.02799555 0.0772229 -0.0687515
000070 d1 84 a2 3d f4 0b 86 bd b4 83 85 3d 6b 46 51 bc
       0.07935489 -0.06545249 0.06519261 -0.012773137
000080 05 aa 79 bc 7f fe 10 bd 12 7f b2 bd 71 c3 6a bd
       -0.01523829 -0.035398956 -0.08715643 -0.057315294
000090 8a 0d 6e 3d b0 e6 c5 3d f3 b6 6a bc 84 fe 4b 3d
       0.05811838 0.09663141 -0.014325845 0.049803272
0000a0 30 1a 32 bc 82 eb 3a 3d 29 1b 27 be d8 5a 71 bd
       -0.010870501 0.045634754 -0.16318955 -0.058924526
0000b0 60 72 ab bd 73 9a e6 3d 40 58 51 3d 04 fa ff 3c
       -0.08371425 0.112599276 0.051109552 0.031247146
0000c0 a7 9c 8c 3d d9 3e a0 3d e4 95 84 3d b6 97 cc 3d
       0.068658166 0.07824487 0.06473902 0.09989874
0000d0 76 8a 07 bd 62 39 8c 3d 3c 0f 88 bd cb ee 60 bd
       -0.03309103 0.068468824 -0.06643531 -0.05491523
0000e0 02 ce 76 bd d4 c9 08 be f3 e5 63 bd d1 0d 19 be
       -0.060255058 -0.13358241 -0.05563922 -0.14946677
0000f0 ab 7a d3 bd 86 3d f9 bc de 4d 21 3d d3 f4 cb bd
       -0.103261314 -0.030424844 0.0393809 -0.09958806
000100 9d b3 53 bd 13 3e 0e 3d 5d d3 19 bd 8a 4d e8 bc
       -0.051684964 0.034727167 -0.037555087 -0.028357286
000110 18 84 0a bc db da 3d bd 04 6a 46 bd 5d 51 ba bd
       -0.008454345 -0.046351295 -0.048440948 -0.0909755
000120 3d fd 39 3d 76 1c d0 3d 71 4b 1f 3d 98 1c b5 3a
       0.045407522 0.101616785 0.038890306 0.0013817726
000130 a2 83 0b 3d 2c a7 22 bb 2e 52 30 bd 02 32 6a bd
       0.03406108 -0.002481888 -0.043047123 -0.057176597
000140 ea ab 37 bd 7f a7 e3 bd 1a 08 99 3d 74 52 24 bd
       -0.044841684 -0.11115932 0.074722484 -0.040117696
000150 b3 48 a3 bd f8 1b 80 3d 3c d4 e6 bd 26 ae cb 3b
       -0.07972851 0.062553346 -0.11270949 0.0062158285
000160 0b cb f2 bd 55 d0 b0 bd 7a 31 99 bc 0b 1d b6 3d
       -0.118551336 -0.08633486 -0.01870035 0.08892258
000170 c0 dc 8c bd df 6d 88 3c 99 10 f6 bb c9 93 e5 bc
       -0.06878042 0.016653953 -0.007509303 -0.028024571
000180 03 d4 bb bd 6b 52 1a 3c 1e 3b 53 3d fa c9 48 bb
       -0.091712974 0.009419064 0.05157005 -0.0030637966
000190 a2 7d 56 bd 11 3f 0d be 41 c1 0e be 89 ec 7d bd
       -0.052365907 -0.13793589 -0.13940908 -0.061993156
0001a0 7d 8c 85 bd af 2d 8d bd be c4 56 bd 07 2a 15 3e
       -0.06520937 -0.06893479 -0.05243372 0.14566813
0001b0 a0 28 2b 3d 67 50 09 3a 1b e7 80 bd 42 07 45 bd
       0.04178679 0.0005238116 -0.0629408 -0.048102625
0001c0 99 a9 c6 3d 97 e0 e1 3c d2 4b c1 bc 95 4f 1c 3c
       0.09700317 0.027572913 -0.023595724 0.009540458
0001d0 a4 45 3a bd 1a b1 16 bb 5e 91 54 3b ad 6a b1 bd
       -0.04547657 -0.0022993744 0.0032435278 -0.08662925
0001e0 fc 9f 95 3c 84 40 bc 3d 06 5d 5b 3d 86 5b 4b 3d
       0.018264763 0.09191993 0.05355551 0.04964783
0001f0 a4 5b 98 3d 8a 73 78 3d c5 28 07 3e 40 15 c7 bd
       0.07439354 0.06065706 0.13199146 -0.0972085
000200 77 a1 8f bd a9 59 f0 3c e2 6d e4 3a d2 6c 2b 3d
       -0.07013219 0.029339628 0.0017427767 0.041851826
000210 ee 22 b4 bc 6f df 9e 3d c3 39 d3 bd de d5 68 bc
       -0.021989312 0.0775746 -0.103137515 -0.014211146
000220 19 f9 bc bd 95 f7 4b bd b4 09 47 bd 4e 76 c5 3d
       -0.09227199 -0.04979666 -0.048593238 0.096417055
000230 77 b1 4b bd 42 60 fe 3c 70 30 0d bd 9a 8a db bb
       -0.04972979 0.031051759 -0.03447002 -0.006699872
000240 06 1e dd bd 4e 76 08 3d 4e 34 82 3d d5 02 89 bb
       -0.10796742 0.03331595 0.063576326 -0.004181246
000250 e8 82 7c bc df c3 18 3e ad 95 be bd 60 f3 10 3c
       -0.01541207 0.14918469 -0.09305892 0.008847088
000260 2f 26 62 bc e3 51 9d 3d a7 df be 3c e9 f3 4b bd
       -0.013803049 0.07681634 0.023300005 -0.049793158
000270 69 b4 a2 bc 16 20 ec ba 3c 21 02 bc fe 6b 83 3d
       -0.019861417 -0.0018014933 -0.007942494 0.06417082
000280 c7 08 8a 3d 80 c6 2e bb 17 a0 76 bd d6 77 2b 3d
       0.067399554 -0.0026668608 -0.060211267 0.04186233
000290 1a b3 6e bd 5e f4 92 bd c3 e7 a9 bd df 81 08 b9
       -0.058276273 -0.071755156 -0.08296158 -0.00013018351
0002a0 52 ed 85 bd 25 7b 87 bd a0 dc 3a 3d 92 ec 95 bd
       -0.06539406 -0.06615285 0.04562056 -0.07320513
0002b0 4a b1 17 bd 63 8d 8a 3d ac ff 02 3c 21 ff 89 bd
       -0.03703431 0.067652486 0.007995527 -0.06738115
0002c0 a2 4f ad bc 88 95 d1 3c a7 45 b6 bd 9b d1 3d bd
       -0.021156136 0.025583997 -0.08900004 -0.046342473
0002d0 3b bc e7 3c d6 16 98 3d 9b 03 c7 3c be e3 17 be
       0.028287997 0.074262306 0.024293711 -0.1483297
0002e0 cc bd c1 3d 90 68 7b 3d 98 0f ee 3d 16 03 f2 bd
       0.09460029 0.061379015 0.11624068 -0.11816995
0002f0 15 52 bd bd 60 79 9f 3c df c6 23 bd df be 30 3d
       -0.092441715 0.019467056 -0.03998458 0.04315078
000300 ec a8 af bc 78 ce 9f bd 0c 72 8c 3d cd e6 bf bd
       -0.021442853 -0.07803053 0.0685769 -0.09370194
000310 75 50 75 3c 4c 29 53 3d cc 2f ac 3c a0 8f ed bd
       0.014972796 0.051553056 0.021018885 -0.1159966
000320 ab d8 83 bd e7 ca ee bc ea 48 e8 bc f2 5b c6 3d
       -0.064378105 -0.029149486 -0.02835508 0.09685506
000330 5e 08 2e 3c 40 0e 87 3b ef f4 96 bd 32 a1 03 3e
       0.010622112 0.004121572 -0.07370936 0.1285446
000340 97 4f 2a bd 94 6a 53 bb 02 87 10 be 36 b8 5b 3d
       -0.04157981 -0.003225957 -0.14114001 0.053642474
000350 ac 4a bd 3d 8a d1 f5 bc f8 01 aa 3c c5 23 1f bd
       0.09242758 -0.030007143 0.020752892 -0.03885247
000360 57 9a 16 3e 5b 27 a7 bd f7 28 1e bd ff d4 14 3e
       0.14707313 -0.08161803 -0.038613286 0.14534377
000370 8e d0 bb 3c c1 d8 60 3d 97 22 ab 3d f5 86 00 be
       0.022926595 0.054894213 0.08356207 -0.12551482
000380 6d fd 21 3d 46 d4 b7 3b 75 33 63 bc 9b e6 fd bd
       0.039548326 0.0056100218 -0.013867249 -0.123975
000390 92 6b 03 3d 0f 9f 52 bd c0 f7 06 bd 71 a9 dd bd
       0.03208501 -0.05142122 -0.032951117 -0.10823334
0003a0 40 8c 73 3c f2 bb 21 be 63 73 c5 3d 79 bb 35 bb
       0.014864981 -0.15794352 0.09641149 -0.002773015
0003b0 9f 8d b6 3d 1f a8 9f bd 54 fd 54 3c 2e 89 f5 bd
       0.08913731 -0.077957384 0.012999851 -0.119890556
0003c0 70 8b 12 bd b6 b7 be bd bd be 41 be c9 17 15 3e
       -0.03577751 -0.09312384 -0.18920417 0.14559855
0003d0 eb c2 26 bd 19 33 fe bb 5f 25 5e bd 0b d0 14 3e
       -0.040713232 -0.007757556 -0.05423486 0.14532487
0003e0 cd 23 56 3d 72 ff 44 bc d8 3c b3 3d aa f4 9a ba
       0.052280236 -0.0120237935 0.087518394 -0.0011822183
0003f0 8b 3d 54 3d 90 fb 09 3e cf 06 ee bc 12 29 ab bd
       0.051816504 0.1347487 -0.029055981 -0.08357443

lin2.bias f4 [5]
000000 0c 13 80 3d 69 fa 90 3d e7 37 87 3c 8e 51 c1 bc
       0.06253633 0.07079012 0.016506149 -0.023598459
000010 11 b9 df 3c
       0.027309926
