Lab5_Project/models/conv_net_cifar.pt (torch, 251465 bytes, 10 tensors)

conv1.weight f4 [6, 3, 5, 5]
0	0x3983efa8	0.00025164825
1	0x3d6698d8	0.056298107
2	0x3e4b80b1	0.1987331
3	0x3dfa007e	0.12207125
4	0xbc60b9f4	-0.01371621
5	0xbcd447eb	-0.0259132
6	0xbc2c3654	-0.010511
7	0x3d01b7b2	0.031669326
8	0x3dfe3a69	0.124134846
9	0x3d8fc3ce	0.07019769
10	0xbd04a896	-0.03238734
11	0xbd872f40	-0.06600809
12	0x3adbf8fe	0.001678258
13	0x3d011a4a	0.03151921
14	0x3d283a9b	0.041071516
15	0xbde11d73	-0.10991945
16	0x3d80e51f	0.062937014
17	0xbdaefc86	-0.08544259
18	0x3d5feb99	0.054668043
19	0x3d49df5c	0.049285278
20	0xbd9e261f	-0.07722115
21	0xbcd20673	-0.02563784
22	0xbd1406da	-0.036139347
23	0x3ccc5711	0.02494386
24	0x3d2ce0f1	0.04220671
25	0xbd0916e0	-0.03346908
26	0x3da256d5	0.07926718
27	0x3bfce23c	0.007717399
28	0x3d285e40	0.04110551
29	0xbd3bcfaf	-0.04585236
30	0xbd2de05f	-0.042450305
31	0xbdab97e2	-0.08378579
32	0xbdbc8f9c	-0.09207079
33	0xbdb3babf	-0.08775853
34	0xbdd7cfd6	-0.105376884
35	0xbe3cb043	-0.18426614
36	0xbd1c38fc	-0.038140282
37	0xbdf6a4d5	-0.12043158
38	0xbd863d0f	-0.06554615
39	0xbc8cdc41	-0.017194869
40	0xbe40b80c	-0.18820208
41	0xbdb58313	-0.08862891
42	0xbd500240	-0.050783396
43	0xbd0fdb30	-0.035121143
44	0xbde2f42a	-0.11081727
45	0xbe485602	-0.1956406
46	0xbe301978	-0.17197216
47	0xbe4b35a3	-0.1984468
48	0xbd44f0c3	-0.04808117
49	0xbe2b7980	-0.16745567
50	0x3d69d127	0.05708423
51	0x3df40a4f	0.11916029
52	0x3e23d052	0.15997437
53	0x3d7d6d13	0.0618716
54	0x3e1693b0	0.14704776
55	0x3e021922	0.127049
56	0x3d80c1b6	0.062869474
57	0x3e25d011	0.16192652
58	0x3e2d253b	0.16908734
59	0x3e26e8e1	0.16299774
60	0xbc819267	-0.01581688
61	0x3e03275a	0.1280798
62	0x3cb527b3	0.022113657
63	0x3d947e12	0.072506085
64	0x3d959aa8	0.07304889
65	0xbd615756	-0.05501493
66	0x3dc75256	0.09732501
67	0xbbdd672b	-0.0067566833
68	0xbdae629d	-0.08514903
69	0xbd100f30	-0.035170734
70	0xbdc7a95f	-0.09749102
71	0xbd4943f2	-0.049137063
72	0xbdc5b368	-0.0965336
73	0xbd4e900e	-0.05043035
74	0xbb9a998d	-0.0047180117
75	0x3db15062	0.0865791
76	0xbd32ab2f	-0.043620285
77	0xbd2a5f7e	-0.041594975
78	0x3d89d8e1	0.067308195
79	0xbb5b4af8	-0.0033461433
80	0xbd1382a9	-0.03601328
81	0xbd02caa4	-0.031931534
82	0xbe0dd15f	-0.138494
83	0x3c87c3a7	0.016572786
84	0xbd246563	-0.040135752
85	0x3c332708	0.010934599
86	0x3ca13393	0.019677913
87	0xbe16ebf1	-0.14738442
88	0xbd9f2961	-0.07771564
89	0x3cf34e88	0.029700533
90	0xbe0bf630	-0.13668132
91	0xbddd1772	-0.107954875
92	0x3d27c266	0.040956877
93	0xbd86db8c	-0.06584844
94	0x3d313c3d	0.04327034
95	0x3d2c2c54	0.042034462
96	0xbd2137b1	-0.039359752
97	0xbdce5f22	-0.10076739
98	0xbd89457b	-0.067027055
99	0x3c49cc67	0.0123168
100	0xbe2769b2	-0.16348913
101	0x3ca282a9	0.019837694
102	0xbdbd0291	-0.09229005
103	0x3dcb736e	0.09934126
104	0xbd409653	-0.04701836
105	0xbe726242	-0.23670295
106	0xbe2d8247	-0.16944228
107	0xbcea4599	-0.02859764
108	0x3c7fe87d	0.015619394
109	0x3cc6c41d	0.024263436
110	0xbe44d5f2	-0.19222239
111	0xbe574376	-0.21021828
112	0xbe322e7f	-0.1740055
113	0x3cc4fad1	0.02404538
114	0x3e39c851	0.18142821
115	0x3c3cd313	0.011524933
116	0xbe20701c	-0.15667766
117	0x3d898d0e	0.06716357
118	0x3de647ba	0.112441495
119	0x3d33c505	0.043889064
120	0x3d403b85	0.046931762
121	0x3d263f10	0.040587485
122	0x3dea5a33	0.114429854
123	0x3e0f8a51	0.14017607
124	0x3e0b9886	0.13632402
125	0xbdf798ff	-0.120897286
126	0xbd873ca8	-0.06603366
127	0xbbc039b7	-0.005866255
128	0x3de0b0cb	0.109712206
129	0x3e2e3289	0.17011465
130	0xbd1161a1	-0.035493497
131	0xbe3b9381	-0.18317987
132	0xbd852539	-0.0650124
133	0xbd898a2a	-0.06715806
134	0x3e12d41b	0.14338724
135	0x3d50af14	0.050948218
136	0xbdd49d19	-0.103815265
137	0xbd6396b9	-0.055563662
138	0xbcdb5535	-0.026774028
139	0x3df16671	0.11787117
140	0x3dc8d202	0.09805681
141	0xbddf223e	-0.10895203
142	0xbd280e12	-0.041029043
143	0x3df50dae	0.119655
144	0x3d6ab72c	0.057303593
145	0x3d833590	0.064067006
146	0xbbf5de20	-0.007503286
147	0x3c8565e8	0.016283944
148	0x3e03ce28	0.12871611
149	0x3e84e205	0.2595369
150	0x3d254ab4	0.040354446
151	0x3d9ba412	0.07599653
152	0x3c46920d	0.012119782
153	0x3c20df03	0.009818795
154	0xbd9149f4	-0.070941836
155	0xbe3a0776	-0.18166909
156	0x3db4ed1a	0.08834286
157	0x3da305a1	0.07960058
158	0xbd36ec17	-0.044658747
159	0xbd311e40	-0.04324174
160	0xbdbbdfd7	-0.091735534
161	0xbe01195d	-0.12607332
162	0xbd5b0256	-0.053469025
163	0xbdbaac7b	-0.09114929
164	0x3d84d54b	0.06485995
165	0xbe153102	-0.14569476
166	0xbc643ec1	-0.013930977
167	0xbd1f6557	-0.038915005
168	0xbd4b7c7a	-0.049679257
169	0x3cc8ba65	0.024502942
170	0xbd801ca8	-0.06255466
171	0xbd7658e3	-0.060143363
172	0x3de3cab7	0.11122649
173	0x3cad83df	0.021181045
174	0x3c9a6bd5	0.018850246
175	0xbe1eab62	-0.15495065
176	0xbdef2bff	-0.116783135
177	0x3d60b89b	0.054863553
178	0x3daa97f2	0.083297625
179	0xbe106333	-0.14100341
180	0xbcb49830	-0.022045225
181	0xbd210e5d	-0.03932034
182	0xbd289473	-0.041157197
183	0x3daa7153	0.08322396
184	0x3c69ce4c	0.014270376
185	0xbe0ca3a3	-0.13734297
186	0x3d1a8ae0	0.037730098
187	0xbddcf771	-0.10789383
188	0xbdf7aefc	-0.120939225
189	0xbd063531	-0.03276557
190	0xbe0bd030	-0.13653636
191	0xbda3530a	-0.07974823
192	0x3ca142b6	0.01968513
193	0x3d9f37fd	0.07774351
194	0xbbb80cc4	-0.005616756
195	0xbdb6be70	-0.08923042
196	0xbe041002	-0.12896731
197	0x3c83fa02	0.016110424
198	0xbdb331cc	-0.087497324
199	0xbd211ecb	-0.039336007
200	0x3e167cd0	0.1469605
201	0x3e5e7ce8	0.21727335
202	0x3e29cdc2	0.16582397
203	0x3dd76c7f	0.10518741
204	0x3d69936c	0.057025358
205	0x3e29b064	0.16571194
206	0x3c7d3265	0.0154539095
207	0x3e6a9324	0.22907692
208	0x3e2cd50c	0.16878146
209	0x3c4a97fb	0.0123653365
210	0x3de4916a	0.11160548
211	0x3d097e4b	0.033567708
212	0x3e284ca2	0.16435483
213	0x3dd0dfb4	0.10198918
214	0xbd658973	-0.056039285
215	0x3d9d66e9	0.07685644
216	0x3e2c3c24	0.16819817
217	0x3d9e2cbe	0.07723378
218	0x3e377a14	0.17917663
219	0x3e15e5ef	0.14638494
220	0x3d99f964	0.075182706
221	0x3dd04713	0.10169806
222	0xbc33b87d	-0.010969278
223	0xbcf0139d	-0.029306227
224	0xbd1d5234	-0.038408473
225	0x3dbf0152	0.09326424
226	0x3e35841b	0.17726175
227	0x3e510e96	0.2041572
228	0xbcc80022	-0.024414126
229	0x3d8201f2	0.06348027
230	0x3cbd663a	0.023120034
231	0x3d7898a8	0.06069246
232	0x3de8c142	0.11364986
233	0xbb6a98b5	-0.0035796587
234	0x3d3a1ad0	0.045435727
235	0x3e1295c4	0.14314944
236	0x3c6ef76f	0.01458536
237	0xbdb68d5a	-0.089136794
238	0x3dbc5acd	0.091970064
239	0xbe00abb3	-0.12565498
240	0x3d120764	0.03565158
241	0xbc746825	-0.014917408
242	0x3c87158c	0.016489767
243	0xbd72edb5	-0.059308726
244	0xbd6dea5c	-0.05808483
245	0xbd9bfd1d	-0.07616637
246	0xbdf67d89	-0.12035663
247	0xbe5216ca	-0.20516506
248	0xbe266172	-0.1624811
249	0x3c6acb18	0.014330648
250	0x3d9e03a9	0.07715542
251	0xbd44bc0e	-0.048030905
252	0xbc5bb3f1	-0.013409601
253	0x3d1f781e	0.038932912
254	0x3ced9ba6	0.029004883
255	0x3dc04582	0.093882576

conv1.bias f4 [6]
0	0xbe287d2c	-0.16454
1	0xbe9381fa	-0.28810102
2	0xbbd675e4	-0.0065448154
3	0xbe9474f8	-0.2899549
4	0xbe440b4d	-0.19144936
5	0x3e3f635a	0.18690243

conv2.weight f4 [16, 6, 5, 5]
0	0xbda354c5	-0.07975153
1	0x3de3f95e	0.111315474
2	0x3e37637b	0.17909043
3	0x3d6eff3b	0.058348875
4	0xbcca24af	-0.024675695
5	0xbe3d4bed	-0.18485995
6	0x3d0ca462	0.034336455
7	0x3e395593	0.1809905
8	0x3e4196b6	0.18905148
9	0xbdc76210	-0.09735501
10	0xbe2e04dc	-0.16994041
11	0xbe055736	-0.1302155
12	0x3e0dccff	0.13847731
13	0x3e573b85	0.21018799
14	0x3d868ffd	0.06570432
15	0xbe05ce46	-0.13066968
16	0xbe4ec99e	-0.20194098
17	0x3d6468e8	0.05576411
18	0x3e18ccf7	0.14921938
19	0x3dda79b2	0.10667743
20	0xbe913df1	-0.2836757
21	0xbdf792d1	-0.1208855
22	0xbe0a9261	-0.13532402
23	0x3d8c5919	0.068529315
24	0x3d691442	0.056904085
25	0x3d903fdd	0.07043431
26	0x3d8ffcfc	0.07030675
27	0x3e04756f	0.12935422
28	0x3d95c1dc	0.07312366
29	0x3d9bfb4e	0.07616292
30	0x3ad68a5a	0.0016368136
31	0x3d4f64fa	0.050633408
32	0x3e498270	0.19678664
33	0x3da1a8f3	0.07893553
34	0xbd0cc654	-0.034368828
35	0xbd6627f2	-0.05619044
36	0xbda251e5	-0.079257764
37	0x3e19e3ee	0.15028355
38	0x3e64515e	0.22296664
39	0x3c8e82da	0.01739638
40	0xbe3e7aa4	-0.18601471
41	0xbda8dd04	-0.082452804
42	0x3e189002	0.14898685
43	0x3e845944	0.25849354
44	0xbcdaf28c	-0.026726983
45	0xbdcb6918	-0.099321544
46	0xbdfc18c1	-0.12309409
47	0x3d6fb7e7	0.058524992
48	0x3e86a58c	0.26298177
49	0x3e144fca	0.14483562
50	0xbd188435	-0.037235457
51	0x3d1653d5	0.036701042
52	0x3d51bc88	0.051205188
53	0x3da4cdbc	0.08047053
54	0xbd81cada	-0.06337519
55	0x3dec0092	0.11523546
56	0x3d502023	0.050811898
57	0x3d1675a7	0.036733296
58	0x3b2e7d3f	0.0026624945
59	0xbce1fb4c	-0.027585648
60	0x3aa1997a	0.0012329065
61	0xbd54292d	-0.05179708
62	0xbc8068f4	-0.015675046
63	0x3ce579ef	0.028012244
64	0x3deb8701	0.11500359
65	0x3e220a50	0.15824246
66	0xbd1c1bc1	-0.038112406
67	0xbda1f860	-0.07908702
68	0xbdb10657	-0.08643787
69	0x3d036f2e	0.03208845
70	0x3d28b2f5	0.04118629
71	0xbd05bf06	-0.032652877
72	0xbc33641e	-0.010949163
73	0xbcb27aae	-0.021787014
74	0x3b631dc6	0.0034655198
75	0xbd640e03	-0.055677425
76	0x3ddd741f	0.10813164
77	0x3d899b26	0.06719045
78	0x3d9e211e	0.0772116
79	0x3d2f599e	0.042810075
80	0xbce21bf3	-0.027601218
81	0x3d7e0d8c	0.062024638
82	0x3cf4cb82	0.029882196
83	0x3d7c5684	0.061605945
84	0xbc4cbd05	-0.012496238
85	0xbe23ab29	-0.15983261
86	0x3d0f07a2	0.03491939
87	0x3e4a6f00	0.19768906
88	0x3d81fbba	0.06346841
89	0xbe0b8324	-0.13624245
90	0xbe1e840b	-0.15480058
91	0xbc8abe9f	-0.016936598
92	0x3dcc11f5	0.099643625
93	0x3df54f52	0.1197802
94	0xbd91b6b7	-0.07114928
95	0xbe3095ec	-0.1724469
96	0x3d0cee98	0.03440723
97	0x3e27cedc	0.16387504
98	0x3d956569	0.07294733
99	0xbdc5eb6d	-0.096640445
100	0xbdda09ca	-0.10646398
101	0xba978846	-0.0011560998
102	0x3d9018ca	0.07035978
103	0x3e5d92a0	0.21637964
104	0x3e79df71	0.24401642
105	0xbe03089f	-0.12796257
106	0xbcecada4	-0.028891392
107	0x3d8d34e4	0.06894854
108	0x3e77abdc	0.24186653
109	0x3e91d576	0.2848317
110	0x3cf36684	0.02971197
111	0xbdb2bff8	-0.087280214
112	0xbce16151	-0.027512224
113	0x3e49e34c	0.19715613
114	0x3e8438be	0.2582454
115	0xbda93e08	-0.08263785
116	0xbe1273a0	-0.1430192
117	0xbd1c146e	-0.03810542
118	0x3dfdd610	0.12394345
119	0x3ea89510	0.32926226
120	0xbd403ae0	-0.046931148
121	0xbe05c349	-0.13062777
122	0xbddefed4	-0.10888448
123	0x3d6c56f4	0.057700112
124	0x3e15d9ae	0.1463382
125	0xbd9a7134	-0.07541123
126	0xbd997057	-0.0749213
127	0x3d7cdad7	0.06173214
128	0x3e1055ce	0.14095232
129	0x3a96ea2a	0.0011513878
130	0xbd719c93	-0.05898721
131	0xbd0155c5	-0.031575937
132	0xbcf91e50	-0.030409962
133	0xbb35ea65	-0.0027758118
134	0x3e0820f2	0.13293818
135	0xbe3839b0	-0.17990756
136	0xbcadea0e	-0.02122977
137	0xbdbedfb7	-0.09320014
138	0xbc90ec27	-0.017690731
139	0x3daa24f8	0.083078325
140	0xbe724ada	-0.23661366
141	0xbd82ae58	-0.0638091
142	0xbc021cd8	-0.007941447
143	0x3d65d108	0.05610755
144	0xbd19be65	-0.03753509
145	0xbe9c9963	-0.30585775
146	0xbe3cbf40	-0.18432331
147	0x3d26bbe1	0.04070652
148	0x3cef8448	0.029237881
149	0xbddc04e2	-0.10743119
150	0xbd3e059e	-0.046392076
151	0x3c63d9cb	0.013906906
152	0x3d746002	0.059661873
153	0x3dc4c5f9	0.09608073
154	0x3de05a3c	0.10954711
155	0xbd423d5d	-0.0474218
156	0xbde46bb2	-0.11153354
157	0x3c7dbb17	0.0154865
158	0xbd054df3	-0.03254504
159	0xbaef3e02	-0.0018252733
160	0xbd1e4131	-0.03863639
161	0xbc7b2268	-0.015328027
162	0xbdcba11f	-0.09942841
163	0x3d101296	0.035173975
164	0x3d532f6a	0.05155889
165	0xbd90e3b0	-0.07074678
166	0xbe2bf386	-0.16792116
167	0xbe102f67	-0.14080583
168	0x3d149f1e	0.03628456
169	0xbd7cb092	-0.061691828
170	0x3dc4ffa4	0.09619072
171	0xbca817bd	-0.020519132
172	0xbc96ef5f	-0.018424688
173	0x3e2b0b4f	0.16703533
174	0x3e6ed157	0.23322044
175	0xbda576f9	-0.08079333
176	0x3d20c62e	0.0392515
177	0xbd397a59	-0.045282695
178	0x3d5bb9d6	0.053644024
179	0x3e2963db	0.16541998
180	0xbdd46aa9	-0.10371906
181	0x3cf18495	0.029482165
182	0xbc8b9d8e	-0.017042901
183	0xbd1ba6bc	-0.038000807
184	0x3e177858	0.14792001
185	0xbd5e9fca	-0.054351605
186	0x3cea0ad4	0.028569616
187	0x3c2b44e1	0.010453434
188	0xbcaf3e35	-0.021391967
189	0x3daa2830	0.083084464
190	0xbd40edff	-0.04710197
191	0x3d360135	0.044434745
192	0xbcf08ec3	-0.02936495
193	0xbcce2030	-0.025161833
194	0x3d394c80	0.04523897
195	0x3d71695e	0.058938377
196	0x3dee5789	0.1163779
197	0x3dbae0c0	0.09124899
198	0x3e14a7eb	0.1451718
199	0xbcfc3693	-0.030787742
200	0x3d0ad0c0	0.033890486
201	0x3d9ace52	0.07558884
202	0x3ce2b52e	0.027674284
203	0x3da80b97	0.082053356
204	0x3e41f70b	0.18941896
205	0xbd3c3c38	-0.045955867
206	0xbdfbe6f6	-0.12299912
207	0xbd9f1f79	-0.07769675
208	0x3c3e6c8c	0.011622559
209	0x3df6e2e9	0.120549984
210	0xbc5b6cfd	-0.013392684
211	0x3b868930	0.0041057095
212	0xbdc4ea05	-0.09614948
213	0x3ceaf504	0.028681286
214	0xbb3f1f0f	-0.00291628
215	0xbcb6f17e	-0.02233195
216	0xbd0c459a	-0.034246065
217	0xbd86b7e7	-0.06578045
218	0x3d5bbce0	0.053646922
219	0x3db6d8ea	0.08928092
220	0x3c48082e	0.012208981
221	0xbd87c350	-0.0662905
222	0x3ce9ea82	0.028554205
223	0x3de7149a	0.11283226
224	0x3d2c4118	0.042054266
225	0xbc68d233	-0.014210272
226	0xbd3c3904	-0.04595281
227	0xbc9a4bf7	-0.018835051
228	0x3d5c37ee	0.053764276
229	0xbdef8fc5	-0.11697344
230	0xbcbe9c60	-0.023267925
231	0x3d9be539	0.0761208
232	0x3dbf9584	0.0935469
233	0xbd488c25	-0.048961777
234	0x3d71d7f1	0.05904383
235	0xbc9b8f5d	-0.01898926
236	0x3d1a96b3	0.037741374
237	0xbd65b1ad	-0.056077648
238	0x3d444d67	0.04792538
239	0xbd17d8e2	-0.03707207
240	0xbd1e264e	-0.03861075
241	0x3db50f33	0.0884079
242	0xbcd05c65	-0.025434682
243	0xbcc7352d	-0.024317348
244	0xbc19a9b6	-0.009378841
245	0x3e16ff8f	0.14745925
246	0x3dbfb87b	0.09361359
247	0x3e07de17	0.13268314
248	0x3daf1878	0.08549589
249	0x3d6f4aa3	0.05842079
250	0x3a1cdacc	0.0005983531
251	0xbd145d53	-0.036221813
252	0xbbb80bbe	-0.005616634
253	0x3d241348	0.04005745
254	0xbdbcc73b	-0.09217688
255	0x3c907545	0.017634043

conv2.bias f4 [16]
0	0xbe3b10a3	-0.18268065
1	0x3da3d8f1	0.08000363
2	0x3e4b7b46	0.19871244
3	0x3e885347	0.26626036
4	0x3e1b4be6	0.15165672
5	0xbe32cd3f	-0.17461108
6	0x3de05001	0.109527595
7	0x3e6a6be7	0.22892724
8	0x3dfe4e50	0.12417281
9	0x3e5103f5	0.20411666
10	0xbd8b879d	-0.068129756
11	0xbd6ebeba	-0.05828736
12	0xbd4247f2	-0.047431894
13	0xbddb7802	-0.10716249
14	0x3e41e43f	0.18934725
15	0x3b2a9e42	0.002603427

conv3.weight f4 [120, 16, 5, 5]
0	0xbc2bab2c	-0.010477822
1	0x3cb63e60	0.02224654
2	0x3d8284de	0.06372999
3	0x3c439386	0.011937028
4	0xbd9fb5c2	-0.077983394
5	0xbdb93a5b	-0.090443335
6	0xbda54335	-0.08069459
7	0x3ca05ada	0.019574571
8	0x3c93ac6e	0.018026557
9	0xbd9c32ee	-0.076269016
10	0xbde96c1e	-0.11397575
11	0xbbb3f44b	-0.0054917685
12	0xbd619045	-0.055069227
13	0x3c6acb0b	0.014330636
14	0xbd558339	-0.052127097
15	0xbd9029ac	-0.07039198
16	0xbd9a4b37	-0.07533877
17	0xbc91de27	-0.017806126
18	0xbd9929d7	-0.074786834
19	0xbe22942f	-0.1587684
20	0xbcf7c0f2	-0.03024337
21	0x3ba13387	0.0049194726
22	0xbc1accf7	-0.0094482815
23	0xbe013d57	-0.12621056
24	0xbbb0229d	-0.00537522
25	0x3df67511	0.120340474
26	0x3d906ca2	0.0705197
27	0x3dc2aa04	0.09505084
28	0x3d01e584	0.031713024
29	0x3d352700	0.044226646
30	0x3d89fc1d	0.0673754
31	0x3d1d59a5	0.03841557
32	0x3d917725	0.07102803
33	0xbd71054f	-0.058842953
34	0xbdea5b57	-0.11443203
35	0xbc521c81	-0.012824179
36	0xbd493293	-0.049120497
37	0xbd5e44dd	-0.054264892
38	0x3bff5821	0.007792488
39	0xbd40e63c	-0.04709457
40	0xbd813c7f	-0.06310367
41	0xbdbaf37e	-0.09128474
42	0xbd1d902f	-0.038467582
43	0xbd9803b4	-0.07422581
44	0xbd796afb	-0.06089304
45	0x3b53d5f4	0.003232357
46	0xbc396d3c	-0.011317547
47	0x3cf5209a	0.029922772
48	0x3cadd19c	0.021218114
49	0x3dc57c7b	0.096428834
50	0xbdb8b68c	-0.09019193
51	0xbd780ec1	-0.060560945
52	0x3a182037	0.000580314
53	0x3dbfd84b	0.093674265
54	0x3bbd53ee	0.0057778275
55	0x3c13bf0b	0.009017716
56	0x3d81d3be	0.06339215
57	0x3dfe768d	0.124249555
58	0x3d4c5353	0.04988415
59	0x3d01a17a	0.031648137
60	0xbdf3f69a	-0.1191227
61	0xbd7b363c	-0.06133102
62	0xbc50a5a2	-0.012734802
63	0xbd5aecaa	-0.053448357
64	0xbd86d714	-0.06583992
65	0xbcbc7ded	-0.023009265
66	0x3d2be108	0.041962653
67	0xbd0a232c	-0.03372495
68	0x3d21316c	0.039353773
69	0xbc83a8c7	-0.01607169
70	0x3d3100a2	0.043213494
71	0xbd991a7e	-0.07475756
72	0xbc0aa8a9	-0.008463063
73	0xbcbc7d81	-0.023009064
74	0xbd0d6200	-0.03451729
75	0x3d5402fd	0.051760662
76	0xbc315f84	-0.010825995
77	0x3d1eba63	0.03875197
78	0x3d35328f	0.04423767
79	0xba92ba00	-0.0011194348
80	0xbd754841	-0.05988336
81	0xbd5875cb	-0.05284671
82	0xbcf7e835	-0.030262092
83	0xbc2f7eab	-0.010711352
84	0xbc436d81	-0.011927963
85	0x3cd5b300	0.02608633
86	0xbc941311	-0.018075498
87	0xbaa4cdb9	-0.0012573517
88	0xbc90eed5	-0.017692009
89	0x3b097054	0.0020971494
90	0x3be5b313	0.0070098727
91	0xbdcb9e65	-0.09942321
92	0xbd4dbc81	-0.0502286
93	0xbc9f5408	-0.019449249
94	0x3ca8ff85	0.020629654
95	0x3d7825c7	0.060582902
96	0x3d870ee5	0.06594638
97	0xbd1d2acb	-0.03837089
98	0x3c651ea6	0.013984358
99	0x3da01dc0	0.07818174
100	0xbc85d53b	-0.016337028
101	0xbc637d6f	-0.013884886
102	0xbdb466a9	-0.08808643
103	0xbd06d643	-0.03291918
104	0x3cb4c7f7	0.022068007
105	0xbc8d4029	-0.017242508
106	0xbdf1c8d9	-0.11805887
107	0xbe247dc1	-0.16063596
108	0xbd7d4462	-0.061832793
109	0x3d0f0ccf	0.034924325
110	0xbd5e18a4	-0.054222718
111	0xbdd07495	-0.10178486
112	0xbda717c3	-0.08158829
113	0x3cc46d60	0.023977935
114	0xbc771633	-0.015080976
115	0xbd2304be	-0.039799444
116	0xbd34dbf9	-0.044155095
117	0xbbb671c9	-0.0055677635
118	0xbc8e4193	-0.017365253
119	0xbdaef0c0	-0.08542013
120	0x3cb6e987	0.022328151
121	0xbd83eba1	-0.06441427
122	0xbd846e5c	-0.06466362
123	0xbd93543c	-0.07193801
124	0xbd483f72	-0.04888863
125	0xbdfe2c98	-0.12410849
126	0xbc562007	-0.013069159
127	0xbd884a29	-0.0665477
128	0x3d999fe7	0.07501202
129	0x3cd3601d	0.025802666
130	0xbde96f0c	-0.11398134
131	0xbdcc501c	-0.09976217
132	0x3c241e83	0.01001704
133	0x3d94e42d	0.072700836
134	0x3b239f13	0.0024966642
135	0xbd308ff6	-0.04310604
136	0xbd1e30f1	-0.038620893
137	0x3d8084ff	0.06275367
138	0x3d8d0ded	0.06887422
139	0x3da2e0b0	0.07953012
140	0xbc6c0deb	-0.014407615
141	0x3d81379b	0.06309434
142	0x3c9a0d9d	0.01880532
143	0x3bb9dc59	0.0056720194
144	0x3d1fb405	0.03899004
145	0x3d6c5ce2	0.057705767
146	0x3cf5acbe	0.029989596
147	0x3b98c7b2	0.0046624774
148	0xbc982c3c	-0.01857578
149	0xbcf58a96	-0.02997331
150	0x3d6645ab	0.056218784
151	0x3b97e0f5	0.0046349713
152	0x3d01fe97	0.031736936
153	0xbb8d60af	-0.004314504
154	0x3db12ce9	0.08651144
155	0xbbc3c2b1	-0.0059741368
156	0x3ce6dedf	0.028182445
157	0x3aa1bfba	0.0012340464
158	0xbdbae81e	-0.09126304
159	0x3d029336	0.031878673
160	0xbaab149c	-0.0013052407
161	0xbd2e4b6b	-0.042552393
162	0xbda3c587	-0.0799666
163	0x3d4fa431	0.050693695
164	0x3d08ecbe	0.0334289
165	0xbcee3ae4	-0.029080816
166	0xbd13716c	-0.03599684
167	0xbd08e809	-0.03342441
168	0x3e009f5d	0.12560792
169	0x3c93e83a	0.01805507
170	0xbd179495	-0.037006933
171	0xbca2159b	-0.019785693
172	0x3d6fd3bd	0.05855154
173	0x3dc32a9f	0.09529614
174	0x3e00268b	0.12514703
175	0x3d59e1ca	0.053193845
176	0x3bf46f98	0.007459592
177	0x3da730d2	0.081636086
178	0x3dc3f96c	0.09569058
179	0x3e05eb4f	0.13078044
180	0xbd928611	-0.071544774
181	0xbd3a73af	-0.04552048
182	0x3c5bf466	0.013424968
183	0x3decf3b4	0.1156992
184	0x3cfa9718	0.030589625
185	0xbccfa850	-0.025348812
186	0xbd4b726d	-0.04966967
187	0xbba60aa7	-0.005067188
188	0x3d812592	0.06305994
189	0xbca89711	-0.020579847
190	0x3d02aff5	0.031906087
191	0xbd572c58	-0.052532524
192	0xbda4be16	-0.080440685
193	0xbbacee01	-0.0052773957
194	0x3d5222aa	0.05130259
195	0x3d37968c	0.044821307
196	0xbe0616b8	-0.13094604
197	0xbdc352a8	-0.0953725
198	0xbd3f6c5d	-0.046734203
199	0xbd357981	-0.04430533
200	0x3cb06277	0.021531327
201	0x3ce309e6	0.02771468
202	0xbc91bd24	-0.017790385
203	0xbcb10c54	-0.021612324
204	0xbdaae86b	-0.083451115
205	0x3c792781	0.015207172
206	0xbc4a4918	-0.0123465285
207	0xbd143ece	-0.036192708
208	0xbd1d01ed	-0.038331915
209	0x3d7e8036	0.06213399
210	0x3cf045e7	0.029330207
211	0x3c71ecc5	0.014765923
212	0xbd4976e4	-0.04918565
213	0x3d303eb9	0.043028567
214	0x3d893df3	0.06701269
215	0xbc94ae61	-0.018149557
216	0x3c5d0cfe	0.013491867
217	0x3d8d83f3	0.06909933
218	0x3e11b2a5	0.14228304
219	0x3e358a43	0.17728524
220	0xbd6cccd9	-0.057812545
221	0x3d8f0e37	0.06985133
222	0x3de9745e	0.113991484
223	0x3daabb27	0.08336478
224	0x3df72dfa	0.12069316
225	0x3da56da9	0.08077557
226	0x3dc2685c	0.09492561
227	0x3d574d01	0.05256367
228	0x3d739d74	0.05947633
229	0x3dc1ecdd	0.09469006
230	0xbc3d9fed	-0.011573774
231	0xbd18534d	-0.037188817
232	0xbe00b6fb	-0.12569802
233	0xbd11589a	-0.035484888
234	0x3c036962	0.008020731
235	0x3bcafbdb	0.0061945743
236	0xbda60bd0	-0.08107722
237	0xbe420db4	-0.1895054
238	0xbdde9376	-0.1086797
239	0xbcb63920	-0.022244036
240	0xbdcb4016	-0.09924333
241	0xbd363972	-0.044488378
242	0xbda92df4	-0.08260718
243	0x3b9ec8cf	0.0048457156
244	0xbd736a72	-0.059427686
245	0xbc45f1ec	-0.012081604
246	0x3ca748a3	0.020420378
247	0x3d0ba569	0.034093294
248	0x3c11054f	0.008851363
249	0x3cef9891	0.029247554
250	0x3e2a704b	0.16644399
251	0x3da138aa	0.07872136
252	0x3d968679	0.073498674
253	0xbb3e9ca1	-0.0029085057
254	0x3d7c0039	0.06152365
255	0x3db4e754	0.08833185

conv3.bias f4 [120]
0	0x3bed3721	0.007239238
1	0x3dc45a54	0.09587541
2	0xbe1a80b9	-0.15088166
3	0xbdb9ca88	-0.09071833
4	0x3ded3dd1	0.11584056
5	0xbc243e82	-0.010024669
6	0xbd653030	-0.05595416
7	0x3dc89405	0.097938575
8	0xbe6ff8bf	-0.23434733
9	0x3e777eb1	0.24169423
10	0xbd98ee16	-0.07467286
11	0xbdae9dae	-0.08526169
12	0x3dbe9bcd	0.093070604
13	0x3e62c4eb	0.2214543
14	0xbccbaec9	-0.024863617
15	0x3db2307a	0.087006524
16	0xbe0a0a01	-0.13480379
17	0x3e2a6f4d	0.1664402
18	0x3d4ea84a	0.05045346
19	0xbd130382	-0.035892017
20	0x3ca66522	0.020311896
21	0x3cb1f5d0	0.021723658
22	0x3b29ef9b	0.002593017
23	0xbcf50e7d	-0.029914135
24	0x3c6744c8	0.01411552
25	0xbce519fb	-0.02796649
26	0x3e0b2b8e	0.13590834
27	0x3e214955	0.1575063
28	0x3df2f3ba	0.118628934
29	0xbdbf5696	-0.09342687
30	0x3d27f4a0	0.041004777
31	0xbdc37de5	-0.09545497
32	0x3d9c2d5f	0.07625841
33	0x3d3f0ec4	0.04664494
34	0xbd121fa4	-0.035674706
35	0x3db74e5c	0.08950493
36	0xbd10f85a	-0.035393097
37	0xbd9826ce	-0.074292764
38	0x3d9f1806	0.07768254
39	0x3dbbb041	0.09164477
40	0xbda93e52	-0.0826384
41	0x3d9b5339	0.07584233
42	0xbe0214cd	-0.12703247
43	0x3da87794	0.08225933
44	0x3e1ace52	0.15117767
45	0xbc9f9e4e	-0.019484665
46	0xbdac59d4	-0.08415571
47	0x3d6ac267	0.057314303
48	0x3dd3e72e	0.103468284
49	0xbe4abe85	-0.1979924
50	0x3de42af0	0.11141002
51	0x3d8835c5	0.06650881
52	0x3d7a6669	0.061132822
53	0xbc212bee	-0.009837134
54	0x3dabc0e0	0.08386397
55	0xbcc45108	-0.02396442
56	0x3da93e73	0.08263864
57	0xbd844ac9	-0.06459577
58	0xbd47e935	-0.048806388
59	0xbce5de48	-0.028060094
60	0x3da143e0	0.07874274
61	0xbdd878b8	-0.105699
62	0xbe177a65	-0.14792784
63	0xbdc5b245	-0.09653143
64	0x3dd00dc2	0.10158874
65	0xbd732c90	-0.05936867
66	0x3d934e2e	0.07192646
67	0xbb0a2313	-0.0021078035
68	0x3e032df0	0.12810493
69	0x3e3b3176	0.18280587
70	0xbaece5fd	-0.0018073913
71	0x3c082171	0.008308754
72	0x3d8219c5	0.063525714
73	0x3d94a3c7	0.072578005
74	0xbe42afe1	-0.19012405
75	0xbdaf1081	-0.0854807
76	0x3df74fa4	0.12075737
77	0x3de7a0c2	0.11309959
78	0x3dfb23cb	0.12262686
79	0x3d00ff1e	0.0314933
80	0x3c1dd508	0.00963331
81	0x3e28cad2	0.1648362
82	0x3cc8f990	0.024533063
83	0xbd7c16c3	-0.061545145
84	0xbe3e5534	-0.1858719
85	0xbd2e42a1	-0.04254401
86	0xbd278c0e	-0.04090505
87	0xbc5ca1ec	-0.01346634
88	0x3e03c98f	0.12869857
89	0x3df54e31	0.119778045
90	0x3c8b3433	0.016992664
91	0xbde7b724	-0.11314228
92	0xbcc956af	-0.024577467
93	0x3cc8cd2f	0.024511902
94	0xbcbe5541	-0.023234012
95	0x3e38d531	0.18050076
96	0xbe142fcc	-0.14471358
97	0x3d433702	0.04765988
98	0xbb7d5918	-0.003865784
99	0x3d276c31	0.040874664
100	0xbd1dec18	-0.038555235
101	0xbc3e25c5	-0.011605685
102	0xbdd7654b	-0.10517367
103	0xbc2e9325	-0.010655199
104	0x3da6a86b	0.08137592
105	0xbdbb7a18	-0.09154147
106	0xbdd1163e	-0.102093205
107	0x3d08885d	0.03333317
108	0x3ba1df78	0.0049399696
109	0xbd75e220	-0.060030103
110	0x3dda350e	0.10654651
111	0xbc70ffd7	-0.0147094345
112	0xbe447e01	-0.19188692
113	0x3dcf3ec0	0.101193905
114	0x3e640df7	0.22270952
115	0xbd978ff1	-0.074005015
116	0xbe696165	-0.2279106
117	0xbbd5a6a2	-0.0065201083
118	0xbe49270b	-0.196438
119	0xbc012a2a	-0.007883588

lin1.weight f4 [84, 120]
0	0xbd57ae4c	-0.052656457
1	0x3e2086ad	0.15676375
2	0x3d1e7dee	0.038694315
3	0xbc42222f	-0.01184897
4	0xbe06aba8	-0.13151419
5	0xbd8a2446	-0.067452
6	0x3cc05e3f	0.02348244
7	0x3d0adc56	0.033901535
8	0x3e20688b	0.1566488
9	0xbc9b16cb	-0.018931767
10	0xbdbdb6ba	-0.09263368
11	0xbe60293a	-0.21890727
12	0xbd94e7c1	-0.07270766
13	0xbea2414c	-0.31690443
14	0x3d9e3bde	0.077262625
15	0xbd694665	-0.0569519
16	0x3d9f7e2b	0.077877365
17	0xbdc28ddb	-0.09499713
18	0x3d3c10ca	0.04591445
19	0x3d8211ee	0.06351076
20	0xbd29519e	-0.0413376
21	0x3de979ea	0.114002064
22	0x3d299f62	0.041411765
23	0x3e0585c5	0.1303931
24	0xbe42409d	-0.1896996
25	0x3c9615ff	0.018321035
26	0x3cb5ddbf	0.022200463
27	0xbe317879	-0.17331113
28	0xbe3757c7	-0.17904578
29	0xbd4a2bb7	-0.049358096
30	0xbd512340	-0.051059008
31	0x3da6598c	0.081225485
32	0xbdada4b7	-0.084786825
33	0x3d388378	0.045047253
34	0x3d8eaece	0.06966935
35	0xbd197919	-0.037469003
36	0x3c9eab1e	0.019368704
37	0x3b77523a	0.003773822
38	0x3d69fc6e	0.0571255
39	0xbe0a3781	-0.13497736
40	0x3d91896f	0.071062915
41	0xbde6a763	-0.11262395
42	0x3e5097e9	0.20370449
43	0x3dc15490	0.09439957
44	0xbe28cd11	-0.16484477
45	0xbd408261	-0.04699934
46	0x3dd168fc	0.10225102
47	0x3d5d6db2	0.05405969
48	0xbd194714	-0.0374213
49	0xbac7d741	-0.0015246646
50	0xbd72f54b	-0.05931596
51	0xbdce447e	-0.100716576
52	0xbdc97b81	-0.098380096
53	0xbdc56513	-0.09638419
54	0x3da12016	0.07867448
55	0xbc15feb6	-0.009154966
56	0x3d0d73da	0.034534313
57	0x3da4d2b9	0.08048005
58	0xbd0d04c6	-0.03442838
59	0x3d6f2f25	0.05839457
60	0xbde5baf5	-0.112173
61	0xbbe38211	-0.0069429954
62	0xbd44ec8a	-0.048077144
63	0x3e06b9e9	0.13156857
64	0x3d9dcf8d	0.07705603
65	0xbe25987d	-0.16171451
66	0x3dbed6d5	0.0931832
67	0x3e1ed543	0.1551104
68	0xbe327266	-0.17426452
69	0xbe3ae5a1	-0.18251659
70	0xbc5a03f7	-0.013306609
71	0x3d2403a6	0.040042542
72	0xbe3ce7ff	-0.18447874
73	0xbdd8cdf1	-0.10586155
74	0x3df3b995	0.11900631
75	0x3d5c55d1	0.05379278
76	0xbbc979a5	-0.0061485344
77	0xbe1ac897	-0.15115581
78	0x3d43408d	0.047668982
79	0xbe6b8e54	-0.23003513
80	0xbbfadaaf	-0.0076554636
81	0xbdd5488b	-0.10414227
82	0x3d9ec03a	0.07751508
83	0xbd360bbd	-0.04444479
84	0xbc7bc561	-0.015366883
85	0xbd1e39a8	-0.038629204
86	0x3cb758c7	0.0223812
87	0x3dce2e1e	0.1006739
88	0xbdc0da30	-0.09416616
89	0xbbb3ec65	-0.005490827
90	0x3db7c583	0.08973219
91	0x3de8378e	0.11338721
92	0x3daf1e24	0.08550671
93	0x3e0caac3	0.13737015
94	0xbdf2137e	-0.11820124
95	0xbe8ad0e8	-0.27112508
96	0x3d0be33e	0.034152262
97	0xbd65ceed	-0.056105543
98	0x3cf7b575	0.030237893
99	0x3dd95870	0.10612571
100	0x3e3dac2b	0.18522708
101	0xbdca07db	-0.098647796
102	0x3d116aac	0.03550212
103	0xbd650e64	-0.055921927
104	0x3d4d6ae7	0.05015078
105	0xbdb7c880	-0.08973789
106	0xbc9b89d3	-0.018986618
107	0xbce5fb0a	-0.028073806
108	0x3d9634ab	0.07334264
109	0xbdfbde1f	-0.122982256
110	0xbd10a404	-0.035312667
111	0xbdc2346a	-0.094826534
112	0x3c54e3db	0.012993778
113	0x3a3e6006	0.00072622334
114	0xbd241309	-0.040057216
115	0x3d450383	0.048099052
116	0x3d921633	0.071331404
117	0x3ded1fa1	0.11578298
118	0x3d932195	0.0718414
119	0xbd7f2f47	-0.062300947
120	0x3e1f4607	0.15554057
121	0x3d3034de	0.043019168
122	0xbe089e2e	-0.13341591
123	0x3d50d4cd	0.050984193
124	0xbdfa8dc5	-0.12234072
125	0x3e0228b2	0.12710837
126	0xbe23d1f3	-0.15998058
127	0xbd0817c7	-0.0332258
128	0xbde26db1	-0.11056078
129	0x3e483a9a	0.19553605
130	0xbd8f62f8	-0.07001299
131	0x3d656f22	0.056014188
132	0xbd3e1241	-0.046404127
133	0x3de3de33	0.111263655
134	0x3d3fce2b	0.046827476
135	0xbd5da1e0	-0.054109454
136	0x3e078203	0.1323319
137	0xbd3ef276	-0.046617948
138	0xbca2935c	-0.019845657
139	0x3d30b352	0.043139763
140	0xbdee880b	-0.11647042
141	0x3de1cc5c	0.110253066
142	0xbd90cc05	-0.07070164
143	0x3d9acae1	0.07558227
144	0xbdb1697f	-0.086627
145	0xbd445d02	-0.04794026
146	0xbd1667f5	-0.036720235
147	0x3b4618d1	0.0030227194
148	0x3e253f9d	0.16137548
149	0x3b4e7942	0.003150538
150	0xbcb0e785	-0.021594772
151	0x3c978d88	0.018500105
152	0x3e01a91a	0.12662163
153	0xbd3c2030	-0.045929134
154	0x3d798699	0.060919378
155	0x3cb46497	0.022020621
156	0xbe1423bf	-0.14466761
157	0xbe169ad2	-0.14707497
158	0x3b946ce8	0.004529584
159	0x3d1a36b6	0.037649833
160	0x3d576876	0.052589856
161	0xbd5e4289	-0.05426267
162	0xbc9bf790	-0.019038945
163	0x3d232e6c	0.039839193
164	0x3e2e732b	0.1703612
165	0xbcf71516	-0.030161422
166	0x3cb5bad3	0.022183811
167	0xbd967eac	-0.073483795
168	0x3e253523	0.16133551
169	0xbe0cb621	-0.13741352
170	0x3e5c41ac	0.21509427
171	0x3d40e9e2	0.047098048
172	0xbe35d14e	-0.17755625
173	0xbd3d1c9d	-0.046169866
174	0x3e019ea4	0.12658173
175	0xbd0b8855	-0.034065563
176	0x3e5f8a21	0.21830036
177	0x3da8789b	0.08226129
178	0x3d5cf7e5	0.05394735
179	0x3df5503b	0.11978193
180	0x3c31526c	0.010822874
181	0xbe2c1be1	-0.1680751
182	0xbe1b3029	-0.1515509
183	0xbb2d0f79	-0.0026406927
184	0x3dc05a22	0.093921915
185	0x3d63ca8a	0.05561308
186	0xbd9d43d2	-0.07678951
187	0x3cf32e67	0.029685212
188	0x3cc93850	0.024562985
189	0x3ddb15a5	0.10697488
190	0xbcadddab	-0.021223864
191	0x3dac1051	0.084015496
192	0xbda57092	-0.08078112
193	0x3cdc44ce	0.026888277
194	0xbcba0a64	-0.022710033
195	0xbc34ef74	-0.011043418
196	0x3d7dc996	0.061959825
197	0x3e1059bd	0.14096732
198	0x3db70971	0.08937348
199	0x3dc177b7	0.09446662
200	0x3dd2745d	0.10276101
201	0xbd13065c	-0.035894737
202	0xbd25fa3e	-0.040521853
203	0x3e37145e	0.17878863
204	0xbdf45ecf	-0.11932146
205	0xbd41f7de	-0.047355525
206	0x3dc24831	0.09486426
207	0xbda01c76	-0.078179285
208	0x3dfaf3bd	0.12253521
209	0xbe0bdb6d	-0.13657923
210	0xbd613551	-0.054982487
211	0xbca32b38	-0.01991807
212	0xbd687026	-0.056747578
213	0x3d800c77	0.062523775
214	0x3e435c84	0.1907826
215	0x3ddbfc30	0.1074146
216	0xbd47df38	-0.048796862
217	0x3e2afbb1	0.16697575
218	0x3d12f714	0.035880163
219	0xbdecbb91	-0.11559213
220	0x3d9d0097	0.07666128
221	0xbc907ca4	-0.017637558
222	0x3e0abc55	0.13548405
223	0xbbcdb1b4	-0.0062772874
224	0x3c0ddfe0	0.008659333
225	0xbbe23c45	-0.0069041573
226	0x3da05edc	0.07830593
227	0x3cc0228b	0.023453971
228	0x3e043d42	0.12913993
229	0xbda01a19	-0.07817478
230	0x3e35dd8f	0.17760299
231	0xbde90526	-0.11377935
232	0x3c970c9c	0.01843863
233	0x3dc5ca50	0.09657729
234	0x3db99bf7	0.09062951
235	0x3ded1384	0.11575988
236	0xbe0bb3b0	-0.13642764
237	0x3cdf7871	0.02727911
238	0xbd8ed8ee	-0.0697497
239	0x3c9b5c4a	0.018964905
240	0x3d06d089	0.03291372
241	0x3dd0bcc9	0.10192258
242	0x3df4715f	0.11935686
243	0x3d520913	0.051278185
244	0x3cc7b2b4	0.024377204
245	0x3cb90fce	0.022590544
246	0x3d5d7b26	0.05407252
247	0x3d15e4a8	0.036595017
248	0xbcfdcfb7	-0.030982835
249	0xbd465b35	-0.048426826
250	0xbdd6905d	-0.10476754
251	0x3da3af3a	0.07992406
252	0xbdad6b6b	-0.08467754
253	0xbdc19811	-0.094528325
254	0x3dd8f7de	0.10594152
255	0x3e05df67	0.13073502

lin1.bias f4 [84]
0	0xbe4c210f	-0.19934486
1	0x3e43114c	0.19049567
2	0xbcc4fe80	-0.024047136
3	0xbd269a05	-0.04067423
4	0xbd3b2853	-0.045692753
5	0xbe0e1bca	-0.13877788
6	0x3e058b20	0.13041353
7	0x3d3450fb	0.04402254
8	0x3dced0e7	0.10098439
9	0xbd6f8c49	-0.058483396
10	0xbc72b644	-0.014813963
11	0x3d75d962	0.060021766
12	0xbe4111c9	-0.18854441
13	0x3da13c4f	0.07872831
14	0xbd2a7e48	-0.041624337
15	0xbd9be815	-0.076126255
16	0xbc0b2efa	-0.008495087
17	0xbd542f4c	-0.05180292
18	0x3e84683a	0.2586077
19	0xbe315ba9	-0.17320122
20	0x3de8e3b9	0.1137156
21	0xbe16d2b8	-0.1472882
22	0xbdc828a8	-0.097733796
23	0xbdfab3db	-0.12241336
24	0xbd35bc32	-0.04436893
25	0x3d0ee6f4	0.034888223
26	0x3dc0c044	0.09411672
27	0xbcca39a7	-0.024685694
28	0x3e0c7d1c	0.137196
29	0x3e33118a	0.1748716
30	0xbc5ffeda	-0.013671601
31	0x3de041d4	0.10950056
32	0xbe30f4d6	-0.17280897
33	0xbdac39f4	-0.08409491
34	0xbdd27981	-0.10277081
35	0xbda6e34d	-0.08148823
36	0x3d04e819	0.032447908
37	0x3c9b5e7c	0.018965952
38	0x3db8eed0	0.09029925
39	0x3d8b0b98	0.06789321
40	0xbc2b8a3f	-0.010469972
41	0x3d14fe57	0.03637537
42	0xbd9e79ef	-0.07738101
43	0xbe1b86a3	-0.15188079
44	0xbd3ed7b4	-0.04659243
45	0x3bb06822	0.0053835073
46	0xbe01ca0d	-0.12674733
47	0x3d29ec7f	0.041485306
48	0xbc735366	-0.014851427
49	0x3e09d077	0.1345843
50	0xbe07603c	-0.13220304
51	0x3de8cda9	0.113673516
52	0x3b87f4ab	0.0041490397
53	0x3dbdc8e3	0.09266832
54	0xbe45de86	-0.19323167
55	0x3e19b6be	0.15011117
56	0xbe1d0194	-0.15332633
57	0xbe53c7a7	-0.2068163
58	0x3e351c11	0.17686488
59	0xbd86891d	-0.06569121
60	0x3d41ad90	0.047284663
61	0xbdb6b70b	-0.089216314
62	0x3e12b727	0.1432768
63	0x3d21901b	0.03944407
64	0xbcea1782	-0.028575663
65	0xbce84da7	-0.02835734
66	0x3daf39ac	0.08555922
67	0xbb8fd9c6	-0.0043899743
68	0xbe1cbec9	-0.15307154
69	0x3d4a914b	0.04945497
70	0xbe34220e	-0.17591116
71	0x3d009b8a	0.031398334
72	0x3bbd659f	0.0057799364
73	0xbe3d76fe	-0.18502423
74	0xbdb4db90	-0.08830941
75	0xbe1b8b7e	-0.15189931
76	0xbcec496d	-0.028843606
77	0x3cf0bbe8	0.029386476
78	0x3d9f695d	0.07783768
79	0xba8e8e32	-0.0010876118
80	0x3da0e3cb	0.07855948
81	0x3db88de7	0.09011441
82	0xbe4cf10f	-0.20013832
83	0xbd95c7cf	-0.07313501

lin2.weight f4 [10, 84]
0	0x3e1a4e4d	0.15068932
1	0x3d0c8a09	0.034311328
2	0xbbc52895	-0.0060168006
3	0xbcc339e2	-0.023831312
4	0xbe30e966	-0.17276534
5	0xbbba3da6	-0.0056836186
6	0x3e3e1be1	0.18565322
7	0xbc46262b	-0.012094061
8	0xbd405d3f	-0.046963926
9	0x3e90db44	0.28292286
10	0x3e18648b	0.14882104
11	0xbe29ed5f	-0.16594456
12	0xbd962f91	-0.07333291
13	0xbc8a97c3	-0.016918069
14	0x3c9b63e1	0.018968524
15	0x3e141093	0.14459448
16	0xbe20d718	-0.15707052
17	0xbd7d8f20	-0.061904073
18	0xbe63bf22	-0.2224088
19	0xbe315ebb	-0.17321293
20	0x3e47c8e8	0.19510233
21	0x3df1169b	0.1177189
22	0x3e118573	0.14211063
23	0xbdda3ca8	-0.106561005
24	0x3d9b4105	0.07580761
25	0x3e1821d0	0.14856648
26	0xbe422007	-0.1895753
27	0x3d1d01d9	0.03833184
28	0x3e210342	0.15723899
29	0x3dceb1c6	0.10092501
30	0x3e7dbe07	0.24779521
31	0x3e1a7227	0.15082608
32	0x3d3a26f0	0.04544729
33	0xbc431011	-0.011905686
34	0x3e137b3a	0.14402476
35	0x3e3e183b	0.1856393
36	0xbde5c119	-0.11218471
37	0x3e14948f	0.14509796
38	0xbea4cc88	-0.32187295
39	0x3e8c25c5	0.27372566
40	0x3e3fc953	0.18729143
41	0xbb62d9f6	-0.0034614778
42	0xbe21d57b	-0.15804093
43	0x3df35846	0.11882071
44	0xbd201a7a	-0.03908775
45	0x3bb77596	0.005598734
46	0xbe0ae363	-0.13563304
47	0x3e32bd28	0.1745497
48	0x3da8ee45	0.08248571
49	0x3e739fb6	0.23791394
50	0xbd0ad96a	-0.03389875
51	0xbd6e95c9	-0.058248315
52	0x3ddbcb2f	0.107321136
53	0x3e7c1ad2	0.24619606
54	0xbe6e159e	-0.23250434
55	0xbdb9460b	-0.09046563
56	0x3c877ef3	0.016540026
57	0xbe8ab09e	-0.27087873
58	0x3de0c54b	0.10975131
59	0x3e4f502d	0.20245428
60	0x3df63002	0.120208755
61	0x3dd8ddcb	0.10589179
62	0x3e8c4a54	0.27400458
63	0xbbc016b1	-0.00586208
64	0xbdc7f791	-0.097640164
65	0xbe241cf8	-0.16026676
66	0xbe13f1b0	-0.14447665
67	0xbc9cf66b	-0.01916047
68	0x3d5afb99	0.0534626
69	0x3e67478c	0.22585887
70	0xbe9d5d53	-0.30735263
71	0xbd41f00f	-0.04734808
72	0x3eac2316	0.33620518
73	0x3d862775	0.065504946
74	0x3dd962ac	0.10614523
75	0xbd2c13a3	-0.042010915
76	0xbec03b8c	-0.3754543
77	0xbcd99304	-0.02655936
78	0xbd9aa409	-0.075508185
79	0xbe80d329	-0.25161102
80	0x3e645db5	0.22301371
81	0xbe31f9cb	-0.17380445
82	0xbe95f008	-0.29284692
83	0xbdca4dce	-0.09878121
84	0xbe61ca2e	-0.22049782
85	0x3e588907	0.21146022
86	0x3dab51f2	0.08365239
87	0xbe84e0d0	-0.25952768
88	0xbe71c0f0	-0.23608756
89	0x3d2c284b	0.042030614
90	0x3e05d48c	0.13069361
91	0x3de5b065	0.11215285
92	0x3e3d1eb2	0.1846874
93	0xbe15212f	-0.1456344
94	0xbd030824	-0.031990185
95	0x3eb6ae85	0.35680023
96	0xbdc1b835	-0.09458963
97	0xbe82735f	-0.25478646
98	0xbe730e90	-0.23736024
99	0xbdf85afe	-0.121267304
100	0xbd411abc	-0.047144637
101	0xbe4bd6cd	-0.19906159
102	0x3e95317b	0.29139313
103	0x3e24143b	0.16023342
104	0x3e53e3d9	0.20692386
105	0xbeab4cc9	-0.3345702
106	0xbddf708b	-0.10910138
107	0xbe68e8e4	-0.2274509
108	0xbe29fc9b	-0.16600268
109	0xbd8bd5bd	-0.06827877
110	0x3e01f9d5	0.1269296
111	0x3cf878ce	0.030331042
112	0x3d74d0ba	0.05976937
113	0x3e2ed9a7	0.17075215
114	0xbe4eb87b	-0.20187561
115	0xbe9ec1a0	-0.310071
116	0xbd5faf08	-0.054610282
117	0xbdc63418	-0.09677905
118	0x3d879128	0.06619483
119	0xbd2a5eee	-0.04159444
120	0xbdd9de7a	-0.10638137
121	0x3d48ada7	0.048993733
122	0x3ce41422	0.027841631
123	0x3e2289b9	0.1587285
124	0xbe4ea5e5	-0.20180471
125	0xbd147f85	-0.036254425
126	0x3be11c71	0.0068698456
127	0xbd3aa185	-0.045564193
128	0x3c726806	0.014795309
129	0x3dca049c	0.098641604
130	0xbeb2ddd3	-0.34934863
131	0x3cf9b098	0.030479714
132	0x3e6f6952	0.2338002
133	0xbc435777	-0.011922709
134	0xbcf6345e	-0.030054267
135	0xbe7b3a3e	-0.24533936
136	0xbdc20a98	-0.09474677
137	0x3e682cfc	0.2267341
138	0xbd9d6ee5	-0.07687167
139	0x3dc0af2c	0.094084114
140	0xbe3de502	-0.18544391
141	0xbe915bd8	-0.28390384
142	0x3c324b8e	0.010882271
143	0xbe715f93	-0.23571615
144	0x3e460c85	0.19340713
145	0xbe9cfa65	-0.30659786
146	0x3e84c2f2	0.2592998
147	0x3e56a238	0.20960319
148	0x3d00bad2	0.031428166
149	0xbd65b904	-0.056084648
150	0x3e867a2b	0.26265082
151	0x3e96cd9e	0.29453748
152	0x3e962961	0.29328445
153	0x3d133a68	0.035944372
154	0xbd34ea1e	-0.044168584
155	0xbdb0a8f0	-0.08625972
156	0xbdb651c6	-0.08902316
157	0x3d5462d9	0.05185208
158	0xbe868e37	-0.26280376
159	0x3e802585	0.25028625
160	0xbc83574c	-0.016032837
161	0xbdb30bd6	-0.08742492
162	0x3e80e0e4	0.25171578
163	0x3c15ae7b	0.009135838
164	0xbdc06b48	-0.09395462
165	0x3ec68df9	0.38780192
166	0xbdb1732a	-0.08664544
167	0x3dc51359	0.09622831
168	0xbda6ea79	-0.08150191
169	0xbda56345	-0.08075575
170	0x3e546f3a	0.20745555
171	0x3e853f5f	0.2602491
172	0xbcf554bd	-0.029947633
173	0xbe644eb8	-0.22295654
174	0x3dc9c768	0.09852487
175	0xbe63b840	-0.22238255
176	0xbe2d5c04	-0.16929632
177	0x3e3f5566	0.1868492
178	0xbe5ee802	-0.21768191
179	0xbe745c4a	-0.2386333
180	0x3cf1ee03	0.029532438
181	0x3e4ffd24	0.20311409
182	0x3e5cb71f	0.2155423
183	0x3c8b760a	0.017024059
184	0x3e31539b	0.17317049
185	0xbde6e0c8	-0.11273342
186	0xbe254244	-0.1613856
187	0xbd8a186b	-0.067429386
188	0xbd9782e7	-0.073980145
189	0xbdcd60c0	-0.10028219
190	0x3e3ff624	0.18746239
191	0xbcd5db48	-0.026105538
192	0x3df9b11d	0.12191985
193	0x3dac3d4a	0.084101275
194	0xbdb21c28	-0.08696777
195	0xbe55e98c	-0.20889872
196	0xbe128a4e	-0.14310572
197	0xbe6ca026	-0.23107967
198	0x3db63c02	0.08898164
199	0x3e04a67a	0.12954131
200	0x3e086aca	0.13321987
201	0xbdcdd343	-0.100500606
202	0x3e487492	0.19575718
203	0x3df3f578	0.11912054
204	0xbe23866b	-0.15969245
205	0x3db9359c	0.09043428
206	0x3e148955	0.14505513
207	0xbd734657	-0.059393253
208	0xbddd6397	-0.10810011
209	0x3e1c0c2f	0.15239023
210	0xbc51abc3	-0.012797299
211	0x3e07f8e5	0.1327854
212	0x3df2a7ae	0.118483886
213	0xbe6fc751	-0.23415877
214	0x3de7b1a1	0.11313177
215	0x3daab0f2	0.08334531
216	0x3dcb2dfa	0.09920879
217	0xbdf00817	-0.11720293
218	0xbdd32e2c	-0.10311541
219	0x3c6eb28f	0.014568939
220	0xbe4b9c85	-0.19883926
221	0xbddb8949	-0.107195444
222	0x3e3def40	0.18548298
223	0xbec1b265	-0.37831417
224	0xbdd56299	-0.10419197
225	0x3d8d195c	0.068896025
226	0xbd26f08e	-0.040756755
227	0xbd4e030e	-0.050295882
228	0x3df8a21b	0.12140294
229	0xbd63707b	-0.05552719
230	0xbdf81cd4	-0.121148735
231	0xbe78ad7a	-0.24284926
232	0xbdcd3450	-0.100197434
233	0xbd828999	-0.06373901
234	0xbc24fb77	-0.0100697195
235	0x3dd74da8	0.10512859
236	0xbe3f01f8	-0.18653095
237	0x3e0ab365	0.13544996
238	0x3dc007e3	0.09376504
239	0xbdc163ca	-0.094428614
240	0x3e014868	0.12625277
241	0x3e1b35db	0.15157263
242	0x3e46eeaa	0.1942698
243	0x3b85040a	0.0040593194
244	0x3d99482c	0.07484469
245	0xbd94a2eb	-0.07257637
246	0xbd0582da	-0.032595493
247	0xbd10b31f	-0.035327073
248	0xbe028209	-0.12744917
249	0xbc29addf	-0.0103563955
250	0xbe7da604	-0.24770361
251	0xbe5badfd	-0.2145309
252	0x3c9e405d	0.0193178
253	0x3cdf6c7d	0.02727341
254	0xbe56542e	-0.2093055
255	0x3e11b542	0.142293

lin2.bias f4 [10]
0	0x3e8248b6	0.254461
1	0x3da6e0d0	0.08148348
2	0xbd6653f6	-0.056232415
3	0x3cebee92	0.028800283
4	0xbe4624f4	-0.19350034
5	0xbd23a9ca	-0.039956845
6	0xbe24a33d	-0.16077895
7	0x3b46bbcb	0.0030324336
8	0xbe2b47d5	-0.1672662
9	0x3dd5e4aa	0.10444005
